bsl-mp/src/bsl-ml-model/models/bsl_sign_model.pth (torch, 108073 bytes, 6 tensors)

net.0.weight f4 [128, 63]
000000 18 73 c7 bc 33 89 1d 3d 44 4c b3 3d 89 37 d0 3c
       -0.024346873 0.03846092 0.08754781 0.025417106
000010 cb 62 d4 bd 28 2d 05 3e 49 65 af 3d 46 64 2f 3c
       -0.10370406 0.13005507 0.085642405 0.010705059
000020 82 13 de bc 99 59 39 3d 02 e5 9c bd d5 4f 3d 3d
       -0.027108911 0.045251463 -0.07660867 0.046218712
000030 9d cc a4 bc 39 1b f3 bc 04 c3 0a bc b5 58 36 3d
       -0.020117098 -0.029676067 -0.008469347 0.04451819
000040 9c 9d 50 bd c0 9a ae 3d 5e 45 b5 bd a9 bd e7 3b
       -0.050931558 0.0852561 -0.08851121 0.00707217
000050 94 ec 9b 3d b0 e5 b0 bd 70 58 b1 3d 70 93 99 3c
       0.07613483 -0.086375594 0.08659446 0.018747061
000060 5c 83 ad 3d e0 ba d3 bd 01 e5 9a bd cf a8 01 be
       0.084723204 -0.10338378 -0.0756321 -0.12662052
000070 4b 6e 2b 3d 48 5a ce 3c b2 54 e2 3d f8 88 69 3d
       0.04185323 0.025189534 0.110513106 0.05701539
000080 f6 38 94 bd 2b 51 ad bd 41 6a 8b bd c5 7b bc bd
       -0.07237427 -0.08462747 -0.06807376 -0.09203295
000090 05 54 8f bd 05 f6 9d 3d ff 12 a2 bd d4 de 96 3d
       -0.06998447 0.0771294 -0.079137795 0.0736672
0000a0 35 f8 a8 bc 28 a9 15 3d ef 44 75 bb 90 d0 2b bd
       -0.020626167 0.036538273 -0.003742512 -0.041946948
0000b0 dd e5 ef 3c 1d 12 f5 bd 8a 14 6c 3d 7e 9e 3c bd
       0.029284412 -0.119663455 0.057636775 -0.046049587
0000c0 0a d5 96 bc 01 2d db 3c f1 20 f7 3c ee 57 f9 bc
       -0.018412132 0.026754858 0.030167075 -0.030437436
0000d0 f6 9e 53 3c 30 56 b9 3d b0 a1 ac 3d a5 dd b4 3d
       0.012916317 0.09049642 0.08429277 0.08831338
0000e0 1a e5 de bd 5f 73 bf 3d be f6 1f bd 76 8b 18 bd
       -0.108835414 0.09348177 -0.03905367 -0.037242375
0000f0 d7 a5 04 be b2 74 ff bb fb 00 81 3d 63 9d 62 3d
       -0.12953888 -0.0077958936 0.06299015 0.055325877
000100 3e 26 96 bd 8d fa d0 3f ce 7d 32 be f3 fa 2f 3d
       -0.07331513 1.6326462 -0.17430803 0.042963933
000110 2e 6c 4e 3f 8d 96 f7 bd de be 09 3e 22 29 9f 3f
       0.8063382 -0.12089262 0.13451716 1.2434428
000120 3b 45 10 be ee c6 21 3e 59 d1 c6 3f b6 6e 10 3d
       -0.1408891 0.15798542 1.5532638 0.035261832
000130 52 b9 8a 3e 4d 73 bd 3f 03 d9 3d be 3c d2 3e 3e
       0.27094513 1.4800812 -0.18539815 0.18634886
000140 d3 b5 05 bf 86 77 d6 bd 7c b2 35 3d eb 19 43 be
       -0.52230567 -0.10472016 0.04435967 -0.19052856
000150 c9 96 8c bd 0c b0 4c bc 60 14 ef bd 43 6a 38 3d
       -0.068646975 -0.012493145 -0.11673808 0.045023214
000160 73 19 73 be 85 de 4d bd 8d 02 1c 3d 59 7a 27 3e
       -0.23740177 -0.05026104 0.03808837 0.16355266
000170 b3 80 8b be b2 af 0f bd 3e 48 84 bd a6 15 49 be
       -0.27246627 -0.035079665 -0.064590916 -0.19637164
000180 cd 77 8b 3c 3f de 09 be 75 11 e1 be fb 45 6a 3e
       0.017024899 -0.13463686 -0.4395863 0.22878258
000190 5a cd 7b be b8 59 e9 be cd 35 ec bd 1d 65 2c 3e
       -0.24590054 -0.45576262 -0.11533699 0.16835447
0001a0 92 c8 05 3c fb 77 3e 3d 86 01 42 3d fc b7 37 3d
       0.0081654955 0.04650114 0.047364734 0.044853196
0001b0 e5 a6 2c 3e c5 28 af 3b e5 d4 dc be 54 9b 06 3e
       0.1686054 0.0053454363 -0.43131176 0.1314519
0001c0 80 0d 8c be 2d bc 2f bf f1 4a c8 bd 5d 30 83 bd
       -0.2735405 -0.6864651 -0.09779919 -0.06405709
0001d0 e4 c9 a5 3e 7a 5f 1e be fe d3 0d 3e 43 49 bb 3e
       0.32380593 -0.15466109 0.138504 0.36579332
0001e0 bf 7d b1 3d 8f 17 95 3c 8e ab 13 3e 14 1e 1c 3e
       0.08666562 0.01819971 0.14420912 0.15245849
0001f0 d6 d2 48 be 3e 2a ad bd 70 03 35 bd 55 fe 2b be
       -0.19611678 -0.08455323 -0.04419273 -0.16796239
000200 1f bf a5 bf 44 ac 44 bd 3a bc 48 be f8 38 8a 3f
       -1.294895 -0.048015848 -0.19603053 1.0798635
000210 8f f4 9e 3d 77 7a 8f 3c c7 37 42 3f 86 8a 8c 3d
       0.077614896 0.01751445 0.7586636 0.06862359
000220 68 73 19 be 24 61 af 3e 6b af 18 3e 5e cf 9d bc
       -0.1498543 0.342538 0.14910667 -0.01926392
000230 ca c3 98 3d cb 16 7c 3d ef e4 28 be 97 98 2d 3f
       0.07459219 0.061545175 -0.16493581 0.6781096
000240 d4 eb 07 3e ae 5f c7 bd d2 cd 93 3e 7b 73 c6 bc
       0.13273555 -0.09735046 0.28867966 -0.024224987
000250 9f 77 05 be ff 4c 17 3c 21 df 9c 3c 12 17 e7 3d
       -0.13033913 0.009234666 0.019149365 0.11283697
000260 d7 80 c8 3d 38 cc dd bd cc 93 57 be 31 e4 7a 3e
       0.09790199 -0.10829967 -0.21052474 0.2450111
000270 be 77 ac 3d ad 8b 84 3c 0c 54 51 be 58 2b 30 bd
       0.084212765 0.016179884 -0.20442218 -0.043010086
000280 c3 80 44 3e 11 49 8e 3e 5d 30 fb bd d4 bb f8 3e
       0.19189744 0.2779012 -0.12265084 0.485808
000290 ba 0e 06 3f 3d 8f 2c be 30 55 f3 bc 0b 9a fd be
       0.5236622 -0.16851516 -0.029703707 -0.49531588
0002a0 f1 44 aa bd 0f 76 95 3c ea 13 0c bf 1f ef 9d 3d
       -0.08313931 0.018244771 -0.54717886 0.07711624
0002b0 34 34 68 3e 05 9b 87 3c 89 00 85 bc e5 f2 bc 3e
       0.22676164 0.016553411 -0.016235607 0.36904064
0002c0 c4 52 bf 3e 2b f9 31 be 30 f9 fc bd dd 8b 23 bf
       0.37367833 -0.17380206 -0.12352216 -0.6388529
0002d0 0f 89 ba 3d e1 ab c9 bd 33 45 20 bf 6e bc 3c 3d
       0.09108173 -0.098472364 -0.6260559 0.046078138
0002e0 d3 4d a4 3d 23 49 91 be b4 5b a6 3c d1 f9 3d 3c
       0.08022656 -0.2837611 0.0203074 0.011595205
0002f0 90 3d 0f 3e e0 d9 45 bd cd b3 d2 3d 0e 03 f5 3d
       0.13988328 -0.048303485 0.102882005 0.11963473
000300 c6 c0 16 3d 8e de ff bd 45 aa d5 bd 54 ab 99 3d
       0.036804937 -0.12493621 -0.10432867 0.07503381
000310 df d2 ec 3d 8f e9 95 3d da 06 8e 3d 51 42 e1 bd
       0.11563658 0.073199384 0.069349006 -0.10998977
000320 aa c6 17 be 9a d6 34 bc 30 0f cd bb 07 b0 f8 bd
       -0.14821878 -0.011037493 -0.006257914 -0.121429496
000330 a8 4a c3 bd bd fa a4 3d bf 55 aa bd 26 a4 31 3d
       -0.09535724 0.08055637 -0.08317136 0.043369435
000340 b7 94 c9 bd 43 e5 f2 3c f1 d5 d8 bc ec a9 80 3d
       -0.09842818 0.029650336 -0.026469203 0.0628241
000350 3b 2f f9 3d 14 b9 15 3d af 44 c3 bd 72 5b a0 3d
       0.121672116 0.036553457 -0.09534585 0.07829942
000360 10 26 b8 bd 80 b3 04 3d 41 82 38 bd ea 17 36 bd
       -0.08991635 0.032397747 -0.045046095 -0.0444564
000370 65 80 64 bb c1 2a 68 3b 80 b7 f9 3c c4 85 4a 3d
       -0.0034866568 0.0035425874 0.030483007 0.049443975
000380 8c 9d bc 3c b8 9f 44 3c 13 f2 e6 3d e4 de 2a bc
       0.023024343 0.012000971 0.11276641 -0.010429118
000390 99 b5 00 be b8 85 c9 bc 23 a3 e0 3d 5d 31 bc bd
       -0.12569274 -0.024599895 0.10968616 -0.09189103
0003a0 23 7d 9a 3d cc 39 c8 3d 35 a2 51 bd 3c cf d7 bd
       0.07543399 0.09776649 -0.051180083 -0.10537574
0003b0 cb b3 a7 3d b1 11 0a bd 62 96 8a bd 75 46 cf 3d
       0.0818859 -0.033708278 -0.067669645 0.101208605
0003c0 cd 2c c9 3c 0e 99 5e 3d 1b b7 23 3c 99 de a0 bc
       0.024557495 0.054345183 0.009992386 -0.019637393
0003d0 e0 a7 3b 3c cd 93 bd bd 99 c9 d0 bd a3 97 07 3c
       0.011453599 -0.092567064 -0.10194702 0.008275899
0003e0 3f 22 54 3d 32 dc 6b 3a 6e d4 55 bd 3e ee 54 bd
       0.051790472 0.000899735 -0.05220454 -0.051985018
0003f0 52 85 b1 bd 19 4f bf 3c ba 8e 33 c0 7f f8 50 3c
       -0.08668007 0.023353146 -2.8055863 0.012754559

net.0.bias f4 [128]
000000 b2 3d bb bd 44 64 73 3d 06 d7 49 3d dc 38 cd bd
       -0.09142627 0.059421793 0.049277328 -0.10020611
000010 59 c4 31 3e ff 11 b5 3d b9 bc d9 bd 86 e5 15 3d
       0.17360057 0.08841323 -0.10631699 0.036595844
000020 b6 4a 9b 3d ba 08 ae bd d2 4f 12 3d 11 54 a7 3d
       0.07582609 -0.08497758 0.035720654 0.08170331
000030 d9 40 d2 3d 04 7f 0b bc 5c dd c8 3c 32 a7 e9 3d
       0.10266275 -0.00851417 0.024519615 0.11408843
000040 44 68 69 3d 10 f0 34 bc c8 41 29 3b d7 e3 f7 bd
       0.0569842 -0.0110435635 0.0025826562 -0.12104004
000050 50 34 7d 3d 4b b9 2f bd 50 3b af 3d 48 f7 1c 3c
       0.061817467 -0.04290132 0.08556235 0.009580441
000060 09 c7 fb bd c7 aa 85 bd 98 dc f0 bd aa d5 5d bd
       -0.12293822 -0.06526714 -0.11760825 -0.054158844
000070 3c bf 33 3e 31 1d ad bc 20 89 3f bd da 01 69 bd
       0.17553419 -0.021132084 -0.046761632 -0.05688653
000080 69 ff f1 3d a8 e6 c9 3d 32 ee a1 bd 70 7b 6e 3d
       0.11816294 0.09858447 -0.0790676 0.058223188
000090 a6 90 d7 3d 0c 68 ac 3d f4 d1 1a 3d fc 12 5e 3d
       0.105256364 0.08418283 0.037797883 0.054217324
0000a0 92 2d af bd 46 23 bd bd dd 1b 9a 3d 0d 92 b9 3d
       -0.08553614 -0.092352435 0.07524846 0.0906106
0000b0 29 3a 04 bd 14 f7 78 bd 00 a2 bc 3d 3e 0e a1 bd
       -0.03228203 -0.060782507 0.092105865 -0.078640446
0000c0 25 f5 eb 3d 8c 88 df 3d c0 36 2e 3d b4 85 c1 bd
       0.11521367 0.10914716 0.042532682 -0.0944933
0000d0 3e 3b a2 3a e7 bf 2a 3e 88 9f 82 bc f5 c2 e4 3d
       0.0012377275 0.16674767 -0.015945211 0.111699976
0000e0 13 25 64 3d 2f 67 2e 3d be cb 15 bd d7 e8 9c bd
       0.05569942 0.042578872 -0.036571257 -0.07661598
0000f0 84 44 f4 3d 3f 02 24 bd e4 cb 86 bd a8 fc d0 bc
       0.11927131 -0.040041205 -0.06581858 -0.0255111
000100 f0 d5 62 bd fd db fe bd 89 0e 83 bc c8 d4 94 3c
       -0.055379808 -0.12444303 -0.015998142 0.018167868
000110 b2 f3 ba 3d d8 9c 7d bc 50 a5 29 3d 30 6a d6 3c
       0.091285124 -0.015479289 0.04141742 0.026173681
000120 c0 17 aa bb 77 a8 0d 3e 20 53 61 bc 0e 7b ae bd
       -0.0051908195 0.13833795 -0.013752729 -0.085195646
000130 10 44 bc 3d a8 43 a3 3d 00 27 df bd 37 3f e7 3d
       0.091926694 0.07971889 -0.108961105 0.11291354
000140 a4 a0 61 3d 9d c9 e4 3d a0 de 2f 3d ed 04 e9 bd
       0.05508484 0.11171267 0.04293692 -0.11377893
000150 2a 2e 33 3e 4a df 75 bd fc 85 30 bd 2e b2 9c bd
       0.17498079 -0.0600274 -0.043096527 -0.076511726
000160 e0 eb 68 3d 85 0a 7a bc b8 45 84 bc 04 56 0b bd
       0.056865573 -0.015261297 -0.016146526 -0.034017578
000170 dc 57 7b 3d f0 eb 1a 3d 5a 0f 01 3e 80 7c 27 bb
       0.061363086 0.037822664 0.12603512 -0.0025556386
000180 31 02 1e bd be 1b 65 bd 88 f9 b9 bd a4 5f 27 be
       -0.03857631 -0.05593466 -0.090807974 -0.16345078
000190 65 fc 75 3d e3 13 80 3d 9d 95 7b 3d 66 d9 62 3d
       0.060055155 0.06253793 0.06142198 0.05538311
0001a0 31 f8 07 3d 68 01 54 3d ec b2 b4 bd cf e2 50 3a
       0.03319568 0.051759154 -0.08823189 0.00079683674
0001b0 a0 90 2b 3e 40 65 37 bd 97 b1 26 3e fc 8f 6d 3d
       0.16754389 -0.044774294 0.16278683 0.057998642
0001c0 18 05 90 3c c2 cc af 3d 79 4a 68 3d c1 57 4f 3c
       0.017580554 0.08583976 0.056711648 0.0126551995
0001d0 1b 0d 18 3d 20 be db bc c4 c9 b9 bd f0 77 58 bc
       0.037121873 -0.026824057 -0.09071687 -0.013212189
0001e0 d3 1a ef 3d 59 82 82 3c 0d 28 03 3e f5 d9 aa 3d
       0.11675038 0.015931295 0.12808247 0.08342353
0001f0 47 fc 95 3d b8 b5 98 3d ef 86 25 3d da 40 65 3d
       0.07323509 0.07456535 0.040411886 0.05597005

net.3.weight f4 [128, 128]
000000 e0 01 5d bc fa 74 e7 3c 67 c2 ce 3c 18 0f a3 bd
       -0.013489217 0.028254021 0.025239183 -0.07961863
000010 58 97 3c bd 22 91 82 3b 21 b2 90 3c f2 27 95 bd
       -0.04604277 0.0039845863 0.017663063 -0.072830096
000020 1e b9 5e bd 52 ff 86 bd 62 80 4a 3c 1b f1 88 ba
       -0.05437576 -0.06591667 0.01235971 -0.0010447832
000030 a1 da 5b 3b ea 31 51 bd 65 85 bd bd 10 e2 38 bc
       0.003354706 -0.051072992 -0.092539586 -0.011284366
000040 31 21 a6 bb fe ee 05 3d 84 ad fb 3c 39 ee 99 3d
       -0.0050698747 0.032698624 0.030722387 0.075161405
000050 41 a4 f7 bc 67 d2 bf bd 70 d0 41 bd 12 fd 9c bc
       -0.03022969 -0.09366303 -0.047317922 -0.019163642
000060 92 57 1b 3d 65 f4 84 3d 72 aa 21 3d e0 39 2a 3b
       0.03792531 0.06491927 0.03946919 0.0025974438
000070 f7 93 7b 3d a4 0d f8 bb 43 b5 04 bb 14 12 a3 3c
       0.061420407 -0.0075699855 -0.0020249642 0.019906081
000080 5c b6 26 bd 25 75 a2 3c 76 5d 7c 3d ea 7b 83 bd
       -0.040701255 0.01983125 0.06161257 -0.06420119
000090 c4 2e 96 3c f8 db a0 3c 62 51 4c 3d 6f 05 7d bd
       0.018332846 0.01963614 0.0498823 -0.06177276
0000a0 18 6a a4 bd 3c af 85 3c 39 65 81 3d 88 25 6c bd
       -0.08028048 0.01631891 0.06318135 -0.05765298
0000b0 aa 29 20 3d 02 ee db bc 85 0e a6 bd 78 93 13 3d
       0.039102234 -0.02684689 -0.08108238 0.03602931
0000c0 61 6e d1 3a 88 bb 2f 3c 1c b5 36 bd 0f cf ab bc
       0.001597833 0.010725863 -0.044606313 -0.020972757
0000d0 5e 53 ac bd 6e 72 90 bd 5e b1 80 bd 36 e6 a4 bd
       -0.084143385 -0.07053076 -0.0628383 -0.08051722
0000e0 fe b6 9d bd b9 22 2b bd f1 c2 97 bd dc ea 94 bd
       -0.077009186 -0.04178116 -0.07410229 -0.07271358
0000f0 8a e0 af bd e9 bc ab bd f0 59 8e 3c e0 5d 08 3d
       -0.08587749 -0.08385641 0.01737687 0.03329265
000100 aa a1 7f 3d 00 08 72 3a 26 0a e7 bc f0 e2 a5 3c
       0.062410034 0.00092327595 -0.028203081 0.020249814
000110 1e bc 46 3d 4c 94 f3 bc 24 e8 e5 3c bf fb 12 bd
       0.048519246 -0.0297338 0.028064795 -0.035884615
000120 72 d4 2b 3d 25 ea 73 bd a9 e2 95 3d ac 94 fd 3c
       0.04195065 -0.05954947 0.073186226 0.030954681
000130 8e 73 4c 3d 4f 6a 28 bd 54 f9 d8 3c df 3f 94 bd
       0.04991489 -0.04111701 0.026486076 -0.07238745
000140 2b ef 3b bd 58 5b a1 3c 70 7b a9 bb 56 2d 67 bd
       -0.045882385 0.019696876 -0.0051721856 -0.05643972
000150 0b 69 21 3d 78 01 21 3c 30 1d 7b 3c 55 2a 84 3d
       0.039406817 0.00982701 0.015326783 0.06453387
000160 fd 23 8a 3d 12 fe b7 bd 2f 7e 44 3b 6b df 80 3d
       0.067451455 -0.08984007 0.0029982438 0.062926136
000170 e1 6c 25 bd 10 0c 7b bc 81 86 73 bc 98 42 3d 3c
       -0.04038704 -0.0153227 -0.014863611 0.011551522
000180 6d fd 9e bc 5b a1 95 3d bc b8 ef 3c b2 40 65 bd
       -0.019407952 0.07306167 0.029262893 -0.0559699
000190 3a f6 e3 bc 50 d9 ab 3c 20 9a 44 3d 53 4a 2a bd
       -0.02782737 0.020977646 0.047998548 -0.041574787
0001a0 ce d5 4e bd 03 cd 84 3d 96 59 6c 3d 8d 47 ac bd
       -0.05049687 0.064844154 0.057702623 -0.08412085
0001b0 d2 9c 34 bd 30 54 98 3c b3 c9 0f bd 75 c3 8e 3c
       -0.044094868 0.018594831 -0.035104465 0.017427186
0001c0 f9 13 51 bd 0e b9 99 3c 0a 72 9e 3d 68 f0 34 3c
       -0.051044438 0.018764999 0.07736595 0.011043645
0001d0 ab 26 28 bd 99 d1 ae 3d 52 af 49 3d 4f 02 aa 3b
       -0.0410525 0.08536071 0.049239464 0.0051882635
0001e0 60 6e b6 ba 00 e0 07 3a ff ad 28 3d 79 c4 95 3d
       -0.0013918392 0.000518322 0.04118156 0.07312865
0001f0 d9 3e 84 bd 64 0b 7b bd 37 42 99 bc 81 4c b8 bb
       -0.064573 -0.06129016 -0.018708332 -0.0056243544
000200 cb ab 5d bd 99 06 b2 bd 08 b9 b6 bd 70 38 8c bb
       -0.054118913 -0.08692665 -0.08922011 -0.004279189
000210 a0 de a4 bd 52 5c 43 bd ef b9 bf 3c a1 3e 7b bd
       -0.08050275 -0.047695465 0.02340409 -0.061339024
000220 f8 c9 32 bd 7c 2c f4 bc a7 12 1f 3c 5d e3 f0 3c
       -0.043649644 -0.029806368 0.009709037 0.02940529
000230 d5 a8 62 3d fd 26 8c bd f9 5d 35 3d 8c 06 3c bd
       0.055336792 -0.06843374 0.044279072 -0.04590468
000240 34 7b 6b bd 8e 62 a3 bd 36 00 3a 3d 60 65 98 bb
       -0.057490543 -0.07977782 0.045410357 -0.0046507567
000250 df b7 6a bc 1c bd 33 bb a4 3e bc bd e0 77 95 bc
       -0.014326065 -0.002742595 -0.09191635 -0.018245637
000260 60 ec 0c bb 2f 09 9d 3d 6c f1 ea 3c 98 82 d3 3c
       -0.0021503195 0.07667767 0.028679572 0.025819108
000270 77 3c ae 3c bd 6c 94 3c 0b da 07 bd 68 f8 e2 3c
       0.021269066 0.018118257 -0.033166926 0.02770634
000280 77 55 81 bd f9 4c 74 bb ce 47 2c 3d 06 aa 15 bc
       -0.06315129 -0.0037277325 0.042060666 -0.009134775
000290 4d 3e b1 3d fa 0b 53 3d 72 9b 24 3d 9c 03 99 bc
       0.08654461 0.051525094 0.040187307 -0.018678479
0002a0 20 0b fd bc e0 28 0a bc 3d 4e c0 bd 26 e9 c4 3c
       -0.030889094 -0.008432597 -0.09389923 0.024036955
0002b0 bf aa b7 3c 00 20 52 b9 6a 7e 50 3d f0 04 0b bc
       0.022420285 -0.00020039082 0.050901808 -0.008485064
0002c0 63 0a 63 bd d5 2b 45 bd d0 3d 4b 3d 70 5d 1e 3b
       -0.055429827 -0.048137505 0.049619496 0.002416458
0002d0 4b e5 1e bd 7d 1f 22 3d c3 2a 1b bd ec 0a 3d 3c
       -0.03879289 0.03958081 -0.037882578 0.0115382485
0002e0 6d 95 23 bc e2 c5 c1 bd 20 f2 23 3b b5 a0 2e bc
       -0.009984356 -0.09461571 0.0025016144 -0.010658433
0002f0 20 57 70 bc f8 00 48 bb 3f 10 86 bd 60 bb 8c bb
       -0.01466921 -0.0030518156 -0.065460674 -0.004294798
000300 d5 ac 99 3d f2 52 56 3d 57 85 db ba 1f 87 a0 3d
       0.07503668 0.052325197 -0.0016748112 0.07838272
000310 09 8f 78 bb 8b 3e ac bd 24 dc a2 bd 97 4e 80 3d
       -0.0037927052 -0.084103666 -0.07952145 0.0626499
000320 98 ee ae bc 18 88 96 bd 2c 75 d8 3c c0 b2 48 3b
       -0.021354005 -0.073501766 0.02642306 0.0030624121
000330 96 ff 5c 3d ed 5e 7c 3c c8 a4 1d 3c f1 51 13 bd
       0.053954683 0.015403491 0.009621806 -0.035966817
000340 86 81 3a 3d 29 a8 96 bd 4a 64 70 bd 21 41 83 3d
       0.04553368 -0.07356293 -0.058689393 0.06408907
000350 2b bf e7 bc 02 e7 67 3d 90 f4 a9 3c fc 02 e7 bc
       -0.028289398 0.05661679 0.0207465 -0.028199665
000360 d4 84 91 bd df 5c 37 bd cd ee 47 bd b0 c9 97 bc
       -0.07105413 -0.044766303 -0.048811723 -0.01852879
000370 f0 ca bf bb 64 72 10 3d 25 c7 88 3c 36 be 6e bd
       -0.0058530495 0.03526534 0.016696522 -0.058286868
000380 e0 95 bf bd 85 a1 99 3d a4 04 82 bd 77 68 cb bd
       -0.09354758 0.075015105 -0.063485414 -0.099320345
000390 b4 ad 03 bc ba de 1f 3d 6a 40 b0 bd 2b d8 45 3d
       -0.0080370195 0.039030768 -0.08606036 0.048301857
0003a0 73 08 95 3b d5 37 88 bd 57 4e a6 bd 85 12 67 bd
       0.0045481264 -0.06651274 -0.08120411 -0.056414146
0003b0 28 bc cf bd d4 02 5f bd 37 14 96 3a 29 e5 12 3d
       -0.1014331 -0.054446056 0.0011450116 0.035863075
0003c0 6c 31 d7 3c be 63 d5 bd 94 c5 72 bc fe b8 f0 bc
       0.026268683 -0.10419415 -0.014817614 -0.029385086
0003d0 8c 4e 48 bc 48 77 50 bd 1e 48 9d bd f5 30 75 bd
       -0.012225758 -0.050895005 -0.07679771 -0.059861142
0003e0 8f 7f b7 bd c3 d6 a2 bd e2 9c 0b bd de 03 2b 3d
       -0.08959877 -0.07951119 -0.034085162 0.041751735
0003f0 a1 b7 d3 bc 9f 6b 92 bd dd 56 73 bd 17 bd bd bc
       -0.025844397 -0.07149433 -0.05940901 -0.023161454

net.3.bias f4 [128]
000000 70 ff b1 bd ac e9 20 bc c0 a6 a0 3d 79 11 00 3e
       -0.08691299 -0.009821337 0.07844305 0.12506665
000010 08 0f 68 3e 8c 96 ba bd 1f fb 01 3e 17 f8 19 3e
       0.22661984 -0.09110746 0.12693451 0.15036045
000020 8b 93 08 3e 6d 50 86 bd 51 d3 96 3d 93 f4 d6 3b
       0.13337533 -0.06558309 0.07364524 0.0065599172
000030 03 06 67 3e 5f 02 07 3e be c3 5b 3e 8a d1 22 3e
       0.22560887 0.13184498 0.21461388 0.15900245
000040 8a 75 49 3e e0 80 8c 3e 19 e8 84 3e 30 b4 48 3d
       0.19673744 0.27442074 0.25958326 0.048999965
000050 02 a1 39 3e b1 bb 34 3e fa cb 46 3e a8 f9 9d 3c
       0.18127826 0.17649724 0.19413748 0.019284084
000060 09 ca b2 bd c0 a9 08 3e 32 68 1e 3e 9e 85 84 3e
       -0.087299414 0.13346004 0.15469435 0.25883192
000070 16 27 98 3e 5b 27 0e 3e 65 f6 3f 3e 3b b7 09 3e
       0.2971732 0.138822 0.18746336 0.13448803
000080 15 99 68 bd 12 70 46 3e 2b f7 cb 3c 13 f4 46 3d
       -0.056786615 0.19378689 0.024898132 0.04857261
000090 21 5a 3e bd 83 a0 3f 3e 57 f0 a0 3c bc be 47 3d
       -0.046472672 0.18713574 0.019645853 0.048765883
0000a0 4e 97 6f 3e 5c 73 90 3e b7 ff 5e 3e 63 17 32 3e
       0.23397562 0.28213012 0.21777235 0.17391734
0000b0 79 37 2d 3e c7 fa be 3d 3f 79 62 3e a2 dd 5d 3d
       0.16915692 0.09325176 0.22116564 0.054166444
0000c0 f6 fc d2 bd 1a c5 43 3e 58 d6 7a 3d d6 b8 19 3e
       -0.10302155 0.19118157 0.06123957 0.15011916
0000d0 8a e3 b6 3d 29 ae 78 3e b0 c3 99 bd dc e3 28 3e
       0.089301184 0.24285187 -0.075080276 0.16493171
0000e0 f7 01 b6 3d 71 26 9c 3e 0c d5 9c 3d 3f ab 44 3e
       0.088870935 0.30498078 0.07657823 0.1920595
0000f0 af ff 60 3e a0 75 ae 3d a1 da 92 3d 61 24 8e 3e
       0.21972536 0.08518529 0.071706064 0.2776213
000100 50 c3 94 3e 10 6b c6 3c e8 44 a7 3e 63 0a bc bc
       0.29055262 0.024220973 0.3266976 -0.022954172
000110 2e 8b 79 3e ac 05 b0 bb 60 f2 42 3e 36 6f 66 3d
       0.24369499 -0.00537177 0.19037771 0.056258403
000120 97 a6 55 3e 6f 01 1a 3e d4 3c d1 3d f3 74 96 3d
       0.2086433 0.1503961 0.1021668 0.07346525
000130 c8 b9 b9 bd 9d b6 48 3e 0f d3 05 3e 0a 4c 39 3e
       -0.09068638 0.19600911 0.13068794 0.18095413
000140 cf ec 26 3e 74 45 d1 3d 67 84 7b 3e 02 6d d7 3d
       0.16301273 0.10218325 0.24562226 0.105188385
000150 c1 b2 a8 bd 7d ca 35 3e 2a 1c cc 3d f9 cd a5 3e
       -0.082372196 0.17753024 0.09966309 0.32383707
000160 af 81 04 3e cc 61 ba 3d 84 d8 ac 3d a4 52 6d bb
       0.12940095 0.091006845 0.084397346 -0.0036212588
000170 1f ce 1f 3e 3e 30 37 3e 1f 74 0c 3e cd 38 f3 3d
       0.15605973 0.17889497 0.13716172 0.11876068
000180 c6 3b 4c 3e d5 8a cf 3d e8 65 24 bb 28 1f 8b 3e
       0.19944677 0.10133902 -0.0025085155 0.27172208
000190 b7 64 a9 3d 52 4f b1 3e 70 b5 ff 3d ef aa aa 3d
       0.08271163 0.3463083 0.12485778 0.08333384
0001a0 bc 37 1c bc 03 ea 6e 3e 7a 61 fc 3d 20 19 9b bb
       -0.0095347725 0.23331456 0.1232328 -0.0047332197
0001b0 47 d5 12 3d 66 39 71 3e 9b 57 22 bc 24 31 44 3e
       0.03584793 0.23557052 -0.009908582 0.1915937
0001c0 b0 7b 1f 3d 1e 3e 01 3e d8 c1 17 3e c4 5d ac 3c
       0.038936317 0.12621352 0.1482004 0.021040805
0001d0 ae a8 32 3e d5 a5 8c 3d 72 c3 55 3e 8f e1 09 3e
       0.17447159 0.068675674 0.20875338 0.1346495
0001e0 bd 7e 8a 3d a9 e8 ea 3d 6f 14 be bd 31 07 b3 3d
       0.06762455 0.11470158 -0.09281241 0.08741606
0001f0 b6 b7 fa 3d cc 44 67 3d 00 a9 e9 3d 28 83 c8 bd
       0.12242071 0.056462094 0.11409187 -0.09790641

net.6.weight f4 [11, 128]
000000 d3 60 a1 bd e5 5a 95 bd 0b d5 ae be b0 94 c9 3d
       -0.07879796 -0.072927274 -0.34146914 0.09842813
000010 21 28 f4 3c 8a 3a 03 bd 89 d6 09 3e 91 03 0f be
       0.029804291 -0.03203825 0.13460745 -0.13966204
000020 d7 31 da 3e 47 9c 18 bb 4c 0f 33 3f 9e 50 21 3e
       0.4261615 -0.0023286508 0.69945216 0.1575341
000030 6a 59 4c bf 71 b6 c2 3e 94 f0 09 3d 42 63 bd be
       -0.79823935 0.38029817 0.0336767 -0.3698979
000040 33 50 30 be 0b 63 cf bf 15 de 79 be e1 4b a2 3e
       -0.17218094 -1.62021 -0.24401124 0.31698516
000050 2f 1e 96 be 94 8f b6 3d 4d 6e a7 3e 71 86 9d be
       -0.29319903 0.08914104 0.3270134 -0.30766633
000060 7b 96 40 3e 2c 78 cd 3d 48 44 24 3d 88 26 28 be
       0.18807404 0.100326866 0.04010418 -0.16420949
000070 57 c3 53 be 20 6e 6b 3d ad 6e 33 be c6 df 38 3e
       -0.20679985 0.05747807 -0.17522688 0.18054113
000080 d0 63 5b 3d b8 8b 3c bc 59 6e 84 3d 1a d0 c1 bd
       0.053561985 -0.011507921 0.0646636 -0.0946352
000090 31 66 82 bc 63 56 03 3e bb f4 37 bc 07 fc 31 bf
       -0.01591787 0.12825923 -0.011227782 -0.6952519
0000a0 f5 06 32 bf a1 df 46 3e 91 ef 10 bc 39 a6 e9 3d
       -0.69541866 0.19421245 -0.00884618 0.114086576
0000b0 53 1e db 3d 19 41 1d 3e 5f 2e a2 bf ac f8 af 3e
       0.10699143 0.15356864 -1.2670401 0.3436941
0000c0 b1 ff a2 be fd 86 73 3e 75 f2 93 3e 7b a0 ca 3c
       -0.31835702 0.23781963 0.28895918 0.024734726
0000d0 fe 88 d9 bd d0 04 a1 3e cf c3 7b 3d 87 63 8f bc
       -0.10621832 0.31448984 0.061466035 -0.017503513
0000e0 0f 65 57 bf 60 39 86 bf 3e 31 d2 be b3 ac 11 bf
       -0.8413858 -1.048626 -0.41053194 -0.56904143
0000f0 7a de 8d 3d 9b 89 13 3d 01 50 06 3e 55 a3 e0 be
       0.069272 0.036019903 0.13116457 -0.43874612
000100 79 84 8c be 42 be e3 3e 53 6e e2 3e a7 20 ac 3d
       -0.2744482 0.44481093 0.44224796 0.084046654
000110 b3 6b 5d bf cb a8 a0 3e ca b4 5b bf 05 e7 0f 3e
       -0.8649246 0.3137878 -0.8582274 0.1405297
000120 5f 7e 7a 3e 91 cc 59 bf 2d da 23 bf 53 49 c0 be
       0.24462269 -0.8507777 -0.64004785 -0.37555942
000130 b2 d7 7a bb 24 2c 9f bf 00 1e 30 bd 78 7f d6 3d
       -0.0038275537 -1.2435346 -0.04299736 0.104735315
000140 ed 2f fd bd 3f 4d c7 3d ad 56 f9 be 3d 98 52 3e
       -0.12362657 0.097315304 -0.4869894 0.20565887
000150 e6 7c ac 3e 27 a9 91 3d 06 1f f6 3e 2f 9b 21 bf
       0.3368904 0.071123414 0.48070544 -0.63127416
000160 59 36 b5 bc 6a c9 81 3e 80 0c b9 bd cb 7d b7 3c
       -0.022120642 0.2534898 -0.09035587 0.02239885
000170 07 b0 21 bf ee 7c 88 bd 30 e0 23 3e 35 1f 8e 3e
       -0.6315922 -0.066644534 0.1600349 0.27758184
000180 46 e1 df be 23 bd 2d 3e 28 08 f7 3e c2 9f ca bf
       -0.43726557 0.16966681 0.4824841 -1.5830004
000190 25 85 22 3e fb 62 59 bf 11 2a d1 3d 45 f2 b7 3d
       0.15871103 -0.8491666 0.10213102 0.08981756
0001a0 ec 18 4b 3e 3b e3 81 be 2c c1 84 3e 90 a0 4c 3f
       0.19833726 -0.25368676 0.25928628 0.799325
0001b0 4d d5 31 bf f0 1e d4 bf 55 30 2d 3e cf c9 f0 bb
       -0.69466096 -1.6571941 0.16912968 -0.007348276
0001c0 44 49 0d 3f 40 e8 16 bd 22 92 14 bd 4d 8a cc be
       0.5518992 -0.036842585 -0.036272176 -0.39949265
0001d0 a6 66 25 bf 32 6b 14 3e e6 52 29 bf cc 4a c4 be
       -0.64609754 0.14494017 -0.6614212 -0.38338315
0001e0 97 8b 74 be 7f 6e bd bd 65 cd e1 bd f0 2e b1 be
       -0.23881374 -0.09249591 -0.11025504 -0.34606123
0001f0 c2 a8 bd 3e c0 96 82 3e da 94 33 be 9d 65 91 bd
       0.37042814 0.25505638 -0.17537251 -0.07099459
000200 f2 45 55 3d ba 15 a6 3c c3 0b 86 3e 6d 65 80 3e
       0.05206866 0.020274032 0.26180848 0.25077382
000210 77 2c d5 bd 37 22 96 bd cb 9c ef 3d 05 6a a3 bf
       -0.104088716 -0.07330745 0.11699828 -1.276673
000220 95 94 a8 3d 71 a6 69 bd c7 53 cb be 6f 0b df 3d
       0.08231465 -0.057043497 -0.39712355 0.10890853
000230 0a 46 8f be 6c 1b f2 be 6d 20 2e 3e 92 5b 59 3e
       -0.27983123 -0.47286546 0.17004557 0.21226338
000240 24 9b a0 bf cb c5 40 3c da 6a e2 3d 1c 8c a4 3e
       -1.2547345 0.0117659075 0.110555366 0.32138145
000250 58 a0 1a bd 51 9b 61 3d 13 10 45 bf 75 a0 88 3e
       -0.037750572 0.055079762 -0.7697765 0.2668492
000260 81 83 a0 3e ea 6d 07 3e 11 74 10 3e 7c cb ae bd
       0.3135033 0.13225523 0.14106776 -0.08534905
000270 ef 24 c8 be 56 62 cf 3d 9a b8 bd bf b9 1e 28 bf
       -0.39090678 0.10126178 -1.4821961 -0.6567188
000280 f2 95 9f bc 27 c1 2a 3e 4e 08 b7 bf fa 46 d2 bd
       -0.01948068 0.16675244 -1.4299409 -0.10267444
000290 dc 95 83 bd e6 54 f0 be 22 a2 db 3d 31 41 1c bf
       -0.06425068 -0.46939772 0.10724284 -0.61036974
0002a0 27 16 86 3d 1f 90 f6 3e 5a 73 aa bf c8 99 15 3e
       0.06547194 0.4815683 -1.3316453 0.14609444
0002b0 89 04 eb 3d 5c 8c c3 3d ca da 38 be 63 af 85 be
       0.114754744 0.09548256 -0.18052211 -0.26110372
0002c0 d7 f3 0a bf 08 9d 1b 3e 00 53 7e 3e c8 db ca bc
       -0.5427832 0.15196621 0.2483635 -0.024763003
0002d0 38 2e a9 bf d5 e6 49 bf c2 92 96 bd 28 a5 eb 3d
       -1.321723 -0.78867847 -0.073522106 0.115061104
0002e0 e0 1c b3 3e 2b ec 0a 3e ea 2b b6 3e 5c 92 7a bf
       0.34982967 0.13566653 0.3558038 -0.97879577
0002f0 7c 6a 6c bf 4a 7d c9 3d b9 99 92 3d 8c e7 05 3e
       -0.9234998 0.0983835 0.071582265 0.1307661
000300 73 6d 91 be e0 ab a9 be 8d 7c 87 bc df ad 7c 3d
       -0.28403816 -0.33138943 -0.016538883 0.061689254
000310 d9 81 26 3e 58 8b ac 3d 65 f4 b0 3d 8e 84 35 3e
       0.1626047 0.08425015 0.086403646 0.17726347
000320 fd 1b d1 bc 19 9f 54 3f 97 c6 5a be cf 42 95 bf
       -0.025526041 0.83055264 -0.21364819 -1.1661013
000330 fd f1 19 3d d0 5a 51 3c 50 53 08 3e ad 4b f8 3d
       0.037584294 0.012777999 0.13313031 0.12123809
000340 cc 80 46 3e e9 2e 8b bf 2c f4 58 3e 9d 7d f8 3d
       0.1938507 -1.0873691 0.21186894 0.12133334
000350 39 b6 e9 3d 9e 73 1d bd 34 15 4a be d0 23 e0 3d
       0.11411709 -0.03844034 -0.19734651 0.10944331
000360 72 d3 ae 3d 04 eb b9 3d 8b f4 b9 3e e1 52 b6 3c
       0.08536424 0.09078029 0.36319384 0.022256317
000370 3f fd 37 3e c7 fb 81 3d 95 76 cb 3d c3 c6 e9 3c
       0.179677 0.06346851 0.09934727 0.02853716
000380 2e 80 23 3e 08 bd 02 3e 8d 37 db be 86 b7 ff be
       0.15966865 0.12767422 -0.4281582 -0.49944705
000390 bd 11 c1 3d 7a e8 03 bf 94 c4 03 3e 7a 8b a9 bf
       0.094272114 -0.51526606 0.12867957 -1.324569
0003a0 b2 66 f9 3d 7e b0 93 3e ff a1 42 3e b5 43 00 bf
       0.12177791 0.2884559 0.19007109 -0.5010331
0003b0 05 7c 64 3d ec 75 69 3e 8f 6f e6 bc d6 a0 17 3e
       0.055782337 0.2279889 -0.028129367 0.14807448
0003c0 ae 39 4d be a8 6c 87 3d bc dd 00 3e 5b cd 0d be
       -0.20041534 0.066125214 0.12584585 -0.13847868
0003d0 18 bb ef 3d a3 e3 23 3e ee 18 2d 3e da 72 a7 bf
       0.11705607 0.16004805 0.16904041 -1.3081925
0003e0 b1 9e aa bd 76 f4 89 3e 31 1f cb 3c 25 2d 20 3e
       -0.08331049 0.2694432 0.024795147 0.15642221
0003f0 4b 12 c1 be 37 fb 14 bf 6a b7 43 3d cc 62 96 3d
       -0.3770927 -0.58195823 0.04778234 0.07343063

net.6.bias f4 [11]
000000 05 11 92 be 68 cf 96 3d 15 d3 50 3c a9 3b 38 bd
       -0.2852861 0.07363778 0.012745638 -0.04497877
000010 dc d2 84 be 17 7a fa bd a7 f3 ca 3c 87 f4 81 bc
       -0.25942123 -0.12230318 0.024774386 -0.01586367
000020 a2 9d f2 3d 34 0d 41 be 98 0e e6 3d
       0.11846472 -0.18852693 0.11233252
