bsl-mp/src/bsl-ml-model/models/bsl_sign_model.pth (torch, 108073 bytes, 6 tensors)

net.0.weight f4 [128, 63]
0	0x3cd03670	0.025416583
1	0xbd28c2cc	-0.041201398
2	0x403897aa	2.8842568
3	0xbe0ddb89	-0.13853277
4	0x3d23033a	0.039798
5	0xbeee6282	-0.4655953
6	0xbe05e280	-0.13074684
7	0x3d9f0e35	0.07766382
8	0xbeaba12a	-0.33521396
9	0xbe5f3354	-0.21796924
10	0x3e21d3e0	0.1580348
11	0x3de8bafc	0.113637894
12	0xbe872895	-0.2639815
13	0x3d758549	0.059941564
14	0x3e2d7be8	0.16941798
15	0xbe25ed47	-0.16203795
16	0x3d480bf5	0.048839528
17	0xbe4c59d9	-0.19956149
18	0xbe13fae8	-0.14451182
19	0x3e5f0f68	0.21783221
20	0x3e717273	0.23578815
21	0x3de62bfa	0.112388566
22	0x3d9dd592	0.07706751
23	0x3dfae191	0.12250055
24	0x3df20625	0.11817578
25	0xbd695685	-0.056967277
26	0x3e5cddd3	0.21568994
27	0xbd0aadd0	-0.033857167
28	0x3e36fe8a	0.17870536
29	0x3d0adbf6	0.033901177
30	0x3d96b119	0.073579974
31	0xbdba1889	-0.09086711
32	0x3d103bd5	0.03521331
33	0x3e48eea8	0.1962229
34	0xbe8c35a1	-0.27384666
35	0xbe94ac3e	-0.2903766
36	0x3eab7856	0.33490247
37	0xbf05f5ec	-0.5232837
38	0xbf4d80e1	-0.8027478
39	0xbe029914	-0.12753707
40	0x3de4c938	0.11171192
41	0x3e395aaf	0.18101
42	0x3b07f229	0.0020743704
43	0x3c3f271e	0.011667041
44	0x3eddb74e	0.43303913
45	0x3e031278	0.12800014
46	0xbe2cb7fb	-0.16867058
47	0xbd9de5d3	-0.07709851
48	0x3dea1d8e	0.11431418
49	0xbe4d4ab9	-0.20048036
50	0xbee4b756	-0.44671124
51	0xbd7fd560	-0.06245935
52	0x3dadba3a	0.084827855
53	0x3ed44a7a	0.4146307
54	0x3d340837	0.043953147
55	0x3e4c3188	0.1994077
56	0x3ec0261a	0.3752907
57	0x3d9dab4e	0.076986894
58	0x3d067c3c	0.032833323
59	0x3d66fdd7	0.056394424
60	0x3d87a30d	0.06622896
61	0x3cef8e12	0.02924255
62	0xbe8fd591	-0.28092626
63	0x3b4c2edd	0.0031155862
64	0xbbfa2163	-0.0076333745
65	0xbf7d02cb	-0.98832387
66	0x3c98b5f1	0.018641444
67	0xbe1e366f	-0.15450452
68	0xbf2994b5	-0.66242534
69	0xbe185387	-0.14875613
70	0xbe4b3425	-0.1984411
71	0xbf427317	-0.75956863
72	0xbe324bf4	-0.17411786
73	0xbe996e74	-0.29967082
74	0xbf855613	-1.0416893
75	0xbde2363e	-0.11045502
76	0xbebd33d5	-0.36953607
77	0xbf7bf106	-0.9841465
78	0xbdd0cde4	-0.101955205
79	0xbe5e1bb1	-0.21690251
80	0xbe848453	-0.25882205
81	0x3e1c9988	0.15292943
82	0xbdb7ecd1	-0.08980716
83	0x3c29f95b	0.010374392
84	0x3da10e39	0.07864041
85	0x3d79ee2d	0.061018158
86	0x3daf0eb4	0.08547726
87	0xbe03c296	-0.12867197
88	0xbd850238	-0.06494564
89	0x3e3bb972	0.1833246
90	0xbd11230d	-0.035433818
91	0xbd8b3b51	-0.06798423
92	0xbe54ae59	-0.20769633
93	0xbc3ec097	-0.011642597
94	0x3e0c3b2a	0.13694444
95	0x3d934359	0.0719058
96	0xbd07e69c	-0.03317891
97	0x3e22f37a	0.15913191
98	0x3ed04c25	0.40683094
99	0x3a6705b6	0.00088128017
100	0x3e12e97f	0.14346884
101	0x3ecd2d06	0.40073413
102	0x3d42edc4	0.047590032
103	0x3dea0cc6	0.114282176
104	0xbda38108	-0.07983595
105	0x3a9ee872	0.0012123717
106	0x3d957136	0.07296984
107	0x3e75766f	0.2397096
108	0xbd6b83ec	-0.057498857
109	0x3e0a2456	0.13490424
110	0x3f199fb1	0.60009295
111	0xbcd99c87	-0.026563896
112	0x3e418510	0.18898416
113	0x3f255486	0.645821
114	0x3dd8cf0a	0.105863646
115	0x3e2a5494	0.16633826
116	0xbe1d7d26	-0.15379772
117	0x3dd2f271	0.10300148
118	0xbc5108b6	-0.0127584245
119	0x3e4ba0e2	0.1988559
120	0x3e068854	0.13137943
121	0x3e390fdf	0.1807246
122	0x3ec7b89f	0.39008042
123	0xbcb04ed4	-0.021521963
124	0x3e920444	0.2851888
125	0x3f08ed2e	0.5348691
126	0xbdfd4b7a	-0.12367912
127	0x3cbaab87	0.022786869
128	0xbedd8c2a	-0.43271
129	0x3d2622c0	0.040560484
130	0x3e4e311a	0.20135918
131	0x3f0a213d	0.5395697
132	0x3e6d3ea9	0.23168434
133	0x3e52d3cc	0.20588607
134	0x3f43bb42	0.7645761
135	0x3defe33c	0.117132634
136	0x3dd0f5a5	0.10203103
137	0x3f3fe51d	0.74958974
138	0x3edf5182	0.43616873
139	0x3e70cf6b	0.23516624
140	0x3f1ee9a8	0.6207528
141	0xbddccd55	-0.107813515
142	0x3e35f2c2	0.17768386
143	0x3f2bdbe5	0.6713241
144	0x3c6b56e2	0.014363976
145	0xbdbd58bd	-0.09245441
146	0x3e30dbeb	0.17271392
147	0x3cd917f5	0.026500681
148	0x3de0ef62	0.10983159
149	0x3e0cd6ce	0.13753816
150	0xbde7d232	-0.113193884
151	0x3e7d2fbe	0.24725243
152	0xbdcb72ea	-0.099340275
153	0xbd374212	-0.044740744
154	0x3dc2f5e5	0.09519557
155	0x3ee75bd0	0.45187235
156	0xbdfef14d	-0.12448368
157	0x3dc1c438	0.09461254
158	0x3cce90b2	0.02521548
159	0x3d350c0d	0.044200946
160	0x3da7e045	0.08197073
161	0xbdf799b0	-0.120898604
162	0x3d07fda9	0.033200894
163	0x3e3a3b2d	0.18186636
164	0xbdcaf66d	-0.09910283
165	0xbcad6a39	-0.021168815
166	0xbdad8197	-0.08471983
167	0x3eb50c80	0.353611
168	0xbdb7ee99	-0.08981056
169	0xbe2c07d8	-0.16799867
170	0xbe3d6e36	-0.18499073
171	0xbd453ec8	-0.048155576
172	0xbcfeeb4d	-0.03111806
173	0xbed26375	-0.41091505
174	0x3c32de95	0.0109173255
175	0xbe2bca7d	-0.16776462
176	0xbe604de1	-0.21904708
177	0xbca63f4e	-0.020293858
178	0xbcb6e116	-0.022324126
179	0x3dd3b1ce	0.10336648
180	0xbdd6c7a9	-0.10487301
181	0xbe857a25	-0.2606975
182	0xbe841474	-0.25796854
183	0xbcde9b1b	-0.02717357
184	0xbeccdb0b	-0.40010867
185	0xbeb6aada	-0.35677224
186	0xbd64a788	-0.055823833
187	0xbec753a6	-0.38931006
188	0xbf025f5f	-0.50926775
189	0x3d8caa70	0.06868446
190	0x3de8fac0	0.11375952
191	0xc0554cf9	-3.332823
192	0x3df249b4	0.11830464
193	0xbd9a578f	-0.07536232
194	0xbda339a7	-0.07969981
195	0x3dc75fef	0.09735095
196	0xbd47129d	-0.048601735
197	0xbe21df78	-0.15807903
198	0x3e26f2bc	0.16303533
199	0xbe5c0438	-0.21485984
200	0xbeb7d0b1	-0.35901406
201	0x3e8bd6e4	0.27312386
202	0xbd9438b5	-0.072373785
203	0xbe88ce5b	-0.26719937
204	0xbd425f08	-0.04745391
205	0xbe0a319a	-0.13495484
206	0x3e062470	0.13099837
207	0xbdb106f1	-0.08643902
208	0xbc8d7958	-0.017269775
209	0x3d6fe2c5	0.058565874
210	0xbd136298	-0.0359827
211	0x3d2918f6	0.04128357
212	0x3d13420c	0.03595166
213	0xbe647197	-0.22308956
214	0xbd43ab6d	-0.047770906
215	0x3d01429a	0.031557657
216	0xbd763231	-0.06010646
217	0xbe10f922	-0.14157537
218	0xbd0b0f81	-0.033950333
219	0xbe0235a7	-0.12715779
220	0xbded2d25	-0.11580876
221	0x3df0d1f6	0.11758797
222	0xbe41b665	-0.18917234
223	0x3e64633a	0.22303477
224	0x3ec7ac24	0.3899852
225	0xbee00d6f	-0.4376025
226	0x3eff1e69	0.4982789
227	0x3f52151a	0.8206345
228	0xbd3fa6c0	-0.046789885
229	0xbe106727	-0.1410185
230	0xbe305038	-0.17218101
231	0x3cc0da52	0.023541603
232	0xbe181c97	-0.14854656
233	0xbe71cdc3	-0.23613648
234	0x3d8636ee	0.06553446
235	0xbd912c1d	-0.07088492
236	0x3e696c45	0.22795208
237	0xbd5f05c5	-0.05444886
238	0x3dd70454	0.104988724
239	0x3da706b5	0.08155576
240	0x3e22da5c	0.1590361
241	0xbd87d9c1	-0.0663333
242	0xbe9d6aa9	-0.30745438
243	0x3e29c7a2	0.1658006
244	0xbc5a0296	-0.013306281
245	0xbf088dbd	-0.53341275
246	0xbdba328a	-0.09091671
247	0xbe1445d9	-0.1447977
248	0xbe80fa29	-0.25190857
249	0xbd08e691	-0.03342301
250	0x3cb3daa7	0.021954847
251	0xbe43549b	-0.19075243
252	0x3cacddca	0.021101851
253	0xbd3899e6	-0.045068644
254	0x3e1d45be	0.15358636
255	0x3c4028e0	0.011728495

net.0.bias f4 [128]
0	0x3c866062	0.01640338
1	0x3d68f537	0.05687448
2	0xbd62ddee	-0.05538743
3	0x3dede6f5	0.11616317
4	0x3ddfb669	0.10923464
5	0xbdea62e0	-0.1144464
6	0x3e709053	0.23492555
7	0x3d98771b	0.074445926
8	0x3a37a4f1	0.0007005474
9	0xbcbf1944	-0.023327477
10	0x3df119b4	0.117724806
11	0x3b84e9d1	0.0040561934
12	0xbde75efa	-0.11297412
13	0xbbee3cd8	-0.0072704367
14	0xbd00e139	-0.03146479
15	0x3d6aa697	0.05728778
16	0x3d83318d	0.064059354
17	0x3da320bd	0.07965229
18	0x3da8a0c4	0.082337886
19	0x3d45cf95	0.04829367
20	0x3d3e99de	0.046533458
21	0x3cf313e8	0.029672578
22	0xbd7167ee	-0.058937006
23	0x3df9fe70	0.12206733
24	0x3ca754cd	0.020426178
25	0x3d3f40b5	0.04669257
26	0x3cbf4c9b	0.023351958
27	0x3d209fad	0.03921478
28	0xbd143908	-0.0361872
29	0xbdc1fad6	-0.09471671
30	0x3bee3ac0	0.007270187
31	0x3da2e741	0.079542644
32	0x3d81bb95	0.063346066
33	0x3cabf230	0.020989507
34	0x3c7634c0	0.015027225
35	0x3c5c3fbd	0.013442931
36	0x3db03ce3	0.08605363
37	0x3ac9fd80	0.0015410632
38	0xbdbc2ad7	-0.091878586
39	0x3d43dd14	0.04781826
40	0xbdd26206	-0.10272603
41	0xbc971000	-0.018440247
42	0x3c478fb9	0.012180262
43	0xbc5ffc9a	-0.013671065
44	0xbcbeca21	-0.023289742
45	0xbd989cd9	-0.07451791
46	0xbdf7a501	-0.12092019
47	0xbd099683	-0.033590805
48	0xbd939546	-0.07206206
49	0x3da54c82	0.08071233
50	0xbc921c22	-0.01783568
51	0xbbfec1e8	-0.0077745803
52	0xbd58841d	-0.052860368
53	0x3de3fd70	0.11132324
54	0x3da91a26	0.082569405
55	0xbdfdc1c9	-0.12390477
56	0xbdf8e168	-0.12152368
57	0x3dc537de	0.096297964
58	0x3d28bde1	0.041196708
59	0x3cc316e0	0.023814619
60	0xbb510f25	-0.0031899896
61	0xbd5070f6	-0.050888978
62	0x3cb4f860	0.02209109
63	0xba2f6100	-0.00066901743
64	0x3c2a9713	0.010411995
65	0xbdd16ade	-0.102254614
66	0xbda1fc7c	-0.07909486
67	0x3e02a754	0.12759143
68	0x3d9073b7	0.07053321
69	0x3d8f85ed	0.07007966
70	0x3debbd4d	0.11510716
71	0x3c9d9da7	0.019240214
72	0xbd687ee6	-0.056761645
73	0x3d2ef448	0.042713434
74	0x3d40cf23	0.04707254
75	0xba22a900	-0.00062049925
76	0x3d76b3b8	0.060229987
77	0x3d8ed91c	0.06975004
78	0x3d8cb0d4	0.06869665
79	0x3d12619b	0.035737615
80	0x3dd5bf3c	0.10436866
81	0x3d0dd24c	0.034624383
82	0x3d3bc398	0.04584083
83	0xbdb2db5c	-0.08733246
84	0x3ce35fed	0.027755702
85	0xbdce7e77	-0.10082715
86	0x3dbb70c9	0.091523714
87	0xbcbdba2c	-0.023160063
88	0xbda49361	-0.08035923
89	0xbe044a1d	-0.12918897
90	0x3d85e78c	0.06538305
91	0xbced2ff7	-0.028953535
92	0xbd5b92f0	-0.053606927
93	0x3d6d1bf7	0.057887997
94	0xbd886e49	-0.0666166
95	0x3d7f70c9	0.06236342
96	0x3dca398c	0.098742574
97	0x3d91a33b	0.07111212
98	0xbddb11e1	-0.106967695
99	0x3d36ed47	0.04465988
100	0xbdf5116b	-0.11966213
101	0xbd8952a6	-0.06705217
102	0x3daf460b	0.085582815
103	0x3cbebe1c	0.02328401
104	0x3dcd1648	0.100140154
105	0x3d6a1a90	0.05715424
106	0xbdf3dc56	-0.1190726
107	0xbd80f04a	-0.062958315
108	0x3deb7026	0.11496
109	0xbadc4f9f	-0.0016808397
110	0xbbe0d999	-0.006861877
111	0x3de0a580	0.109690666
112	0x3c3621b0	0.01111643
113	0x3db2b8f7	0.087266855
114	0xbc8b020d	-0.016968751
115	0x3d3710ca	0.044693746
116	0xbbc2bb40	-0.005942732
117	0x3c955378	0.018228278
118	0x3d9f8678	0.0778932
119	0x3d318a49	0.04334477
120	0x3e19acb8	0.15007293
121	0xbe365c3b	-0.1780862
122	0x3cbfa588	0.023394361
123	0xbc8b3d35	-0.01699696
124	0x3dc03392	0.09384836
125	0xbaee1994	-0.0018165582
126	0x3db28e71	0.08718575
127	0xbc9dd4f8	-0.01926659

net.3.weight f4 [128, 128]
0	0x3f72a520	0.9478321
1	0x3aa0ffcc	0.0012283265
2	0xbe9021fb	-0.28150925
3	0xbdd76554	-0.10517374
4	0xbd941944	-0.072313815
5	0xbdb65bad	-0.089042045
6	0x3e55abc3	0.20866303
7	0x3f02a819	0.51037747
8	0xbd10c07b	-0.035339814
9	0xbdade18c	-0.08490285
10	0xbcac2040	-0.021011472
11	0xbd8cfb09	-0.06883819
12	0x3c4c2990	0.012461081
13	0xbdf16672	-0.11787118
14	0xbd8c7d54	-0.06859842
15	0x3c053c0d	0.008131993
16	0xbb19822b	-0.0023423533
17	0x3d857614	0.06516662
18	0x3d0fad9c	0.035077676
19	0x3f47a627	0.77987903
20	0x3f0cb2ce	0.54960334
21	0x3da9ecf7	0.082971506
22	0xbc60529b	-0.01369157
23	0x3fb30d5c	1.3988452
24	0x3f06fa34	0.5272553
25	0x3f623f11	0.8837748
26	0x3ecd8764	0.40142357
27	0x3f34dd8f	0.7065057
28	0xbcbb3ef8	-0.022857174
29	0xbd300535	-0.042973716
30	0xbda21594	-0.07914272
31	0x3f151e10	0.58248997
32	0x3ca1aced	0.019735778
33	0x3f0eb7cb	0.55749196
34	0xbd5cb1e3	-0.053880583
35	0xbc514f8b	-0.012775312
36	0xbd1a5aec	-0.037684366
37	0x3b032ec0	0.002001688
38	0xbcb80808	-0.022464767
39	0xbba0e149	-0.0049096686
40	0x3d8e02e5	0.06934146
41	0x3cf930bb	0.030418744
42	0x3b908dd4	0.0044114385
43	0x3c9f6fa8	0.019462422
44	0xbd596244	-0.05307223
45	0xbda948ca	-0.082658365
46	0x3c16a798	0.009195231
47	0x3e6e1daa	0.23253503
48	0x3cf88b7b	0.030339947
49	0x3cf0d86c	0.029400073
50	0xbe18b835	-0.1491402
51	0x3ef985c0	0.48734856
52	0xbde060f0	-0.10955989
53	0x3ba1867c	0.004929362
54	0x3f9e9707	1.238984
55	0xbd3bc1cb	-0.045839112
56	0x3cd7a6fc	0.026324742
57	0x3f18ce9d	0.59690267
58	0x3d19c8f7	0.03754517
59	0x3d9a74b1	0.07541788
60	0xbdba8e11	-0.09109128
61	0xbdb3702a	-0.08761628
62	0xbb3cc520	-0.002880402
63	0xbcff70b4	-0.03118167
64	0xbe8fd6fc	-0.28093708
65	0x3dd1e496	0.102486774
66	0x3da8b095	0.08236805
67	0x3cd571d8	0.026055261
68	0xbd8ae411	-0.067817815
69	0xbe2b0d7d	-0.16704364
70	0xbcd2b4e1	-0.025721015
71	0x3d48515f	0.048905727
72	0xbb3898a0	-0.0028167143
73	0xbea041a6	-0.31300086
74	0x3cedf611	0.029047998
75	0x3d86cdbb	0.06582209
76	0xbd5a1285	-0.053240318
77	0x3d8e7078	0.069550455
78	0xbbc3cb10	-0.0059751347
79	0x3f098f9b	0.5373475
80	0xbe0aef0f	-0.13567756
81	0xbb033482	-0.002002031
82	0x3d63910a	0.055558242
83	0x3c6b0a90	0.01434578
84	0xbe9e94a1	-0.3097277
85	0x3d39945e	0.04530751
86	0x3e163a37	0.14670645
87	0x3cd7ccd8	0.026342794
88	0xbe72b4c0	-0.23701763
89	0x3cd11627	0.025523258
90	0x3d92765f	0.07151484
91	0xbdeddcb8	-0.116143644
92	0x3cad1524	0.021128245
93	0x3f11b944	0.5692332
94	0xbced709b	-0.028984359
95	0x3dc9e87c	0.09858796
96	0x3d2e880e	0.04261022
97	0xbdfad7c0	-0.12248182
98	0x3ce35944	0.027752526
99	0x3f437c98	0.7636199
100	0xbcd6c976	-0.026219111
101	0x3e79f19b	0.24408571
102	0xbde6f56e	-0.11277281
103	0xbe546a79	-0.20743741
104	0xbd6b0b4b	-0.057383817
105	0x3d759a56	0.05996164
106	0xbce772d6	-0.028253
107	0xbbbe9e50	-0.005817212
108	0xbcc01ec0	-0.023452163
109	0x3c54def8	0.012992613
110	0x3dab8c5d	0.083763815
111	0x3bc86b0d	0.006116277
112	0x3d331612	0.04372222
113	0x3eac1150	0.33606958
114	0x3f322c82	0.69599164
115	0x3f96e8dc	1.1789813
116	0xbd8a7453	-0.06760468
117	0x39bddc00	0.00036212802
118	0x3cd22070	0.025650233
119	0xbd80e06c	-0.06292805
120	0x3e1d9809	0.15390028
121	0xbe48a172	-0.19592836
122	0x3d254502	0.040349014
123	0x3f5f0853	0.87122077
124	0xbcaffc1e	-0.021482524
125	0xbcc0d276	-0.023537856
126	0xbd65b57d	-0.056081284
127	0x3ea8296b	0.328441
128	0xbc2244c6	-0.009904092
129	0x3da99afe	0.082815155
130	0xbb5ed120	-0.003399916
131	0x3c90dca5	0.017683337
132	0xbd026149	-0.03183106
133	0xbcc18c64	-0.023626514
134	0xbd711e8b	-0.05886702
135	0xbdc2bf3a	-0.0950913
136	0xbd4aa8cf	-0.049477395
137	0xbb29cf80	-0.0025911033
138	0xbdaddc54	-0.0848929
139	0xbd3aa73d	-0.045569647
140	0x3d3a442e	0.045475177
141	0xbc815272	-0.015786383
142	0xbd1b0cb3	-0.037853908
143	0x3cffcecc	0.031226538
144	0xbd1492ef	-0.03627294
145	0xbbbf101c	-0.005830778
146	0x3d55aaa7	0.0521647
147	0xbdafd364	-0.085852414
148	0x3cdb4e27	0.026770664
149	0x3d04df8a	0.032439746
150	0xbd7c57a1	-0.061607007
151	0x3b10ab92	0.002207492
152	0xbd4ee8e6	-0.050515078
153	0x3d103290	0.03520447
154	0x3cc0c619	0.02353196
155	0x3b9a1a2f	0.0047028284
156	0x3d9bdfab	0.07611021
157	0x3d77714a	0.060410775
158	0xbd9ef245	-0.07761053
159	0xbd785aaa	-0.06063334
160	0xbd9e4b79	-0.07729239
161	0xbd4cfa65	-0.050043482
162	0xbd883624	-0.066509515
163	0xbb929cea	-0.004474272
164	0xbd506707	-0.050879505
165	0xbd4bc5b5	-0.049749095
166	0x3c802ecc	0.015647314
167	0x3da483e1	0.080329664
168	0x3c51b608	0.012799747
169	0xbb91a450	-0.0044446364
170	0x3ca686b8	0.02032791
171	0x3da976b9	0.08274598
172	0xbc1e18d8	-0.009649478
173	0x3d5bb1fe	0.053636543
174	0xbd8c068a	-0.06837185
175	0x3d106b0c	0.035258338
176	0xbc0a34f8	-0.00843548
177	0x3d146e5a	0.036238052
178	0xbcc0c369	-0.023530679
179	0xbdd8f5a4	-0.10593727
180	0xbd6e9a04	-0.05825235
181	0x3d6c3966	0.057671927
182	0xbdb62ea4	-0.08895615
183	0xbd1b4db0	-0.037915885
184	0x3d53a69e	0.05167257
185	0x3d48fbd8	0.049068302
186	0x3c987b5b	0.018613508
187	0xbd3783d8	-0.04480347
188	0xbc3cc037	-0.011520437
189	0xbcbf9470	-0.02338621
190	0xbc7ced88	-0.015437491
191	0xbd0bd7ec	-0.034141466
192	0xbdbcb948	-0.09215027
193	0x3d18aa9f	0.037272092
194	0xbd905e87	-0.0704928
195	0x3ab8ccea	0.0014099155
196	0xbdad1bcc	-0.084525675
197	0x3d5fc07a	0.05462692
198	0x3d1c4828	0.03815475
199	0xbdb2b14d	-0.08725224
200	0x3d2c9422	0.042133458
201	0xbbc2ff85	-0.0059508705
202	0x3a93c132	0.0011272787
203	0xbd555066	-0.052078627
204	0x3c2a98b0	0.01041238
205	0x3ba8bb00	0.0051492453
206	0xbd6c3160	-0.057664275
207	0xbd596049	-0.05307034
208	0xbc73465e	-0.01484832
209	0xbda4d266	-0.08047943
210	0xbd97027a	-0.07373519
211	0x3d6ab80a	0.05730442
212	0xbd49bef6	-0.04925438
213	0xbd5980bc	-0.053101286
214	0x3d821f2d	0.063536026
215	0x3c4ea6a0	0.012612969
216	0xbd62171e	-0.055197828
217	0xbd4f5f61	-0.05062807
218	0xbcbcf604	-0.023066528
219	0xbd7c1ef7	-0.061552968
220	0xbd04afc9	-0.032394204
221	0x3c9cc866	0.019138526
222	0xbcbc1c23	-0.022962635
223	0xbdc222ce	-0.09479295
224	0xbcf2ecbc	-0.0296539
225	0xbd584960	-0.05280435
226	0x3d1cce1e	0.038282506
227	0x3d5ed16d	0.054398943
228	0x3cb0fafc	0.021604054
229	0xbdbc8c82	-0.09206487
230	0xbd6b4179	-0.057435486
231	0xbcceddaa	-0.025252182
232	0xbd6b2d50	-0.05741626
233	0xbc83b3f4	-0.01607702
234	0x3d2f5874	0.042808965
235	0xbc6249d0	-0.013811544
236	0x3cf69fa8	0.030105427
237	0x3d85f342	0.06540538
238	0xbc06783a	-0.008207375
239	0xbd73a2ae	-0.059481315
240	0xbdae48f1	-0.08510006
241	0xbd891dd4	-0.066951424
242	0xbd7412a0	-0.059588075
243	0xbdab267b	-0.08356949
244	0xbd2eb314	-0.04265125
245	0x3ce0ef38	0.027457818
246	0x3cba6c92	0.022756848
247	0x3cf0ff7b	0.029418698
248	0xbd46feb0	-0.048582733
249	0xbdb20e6b	-0.08694156
250	0xbd80d7e5	-0.062911786
251	0x3d3b316e	0.045701437
252	0x3d2668ba	0.04062722
253	0xbd150a4a	-0.036386766
254	0xbdcc3d30	-0.09972608
255	0xbdf81dba	-0.12115045

net.3.bias f4 [128]
0	0x3e3012f3	0.17194729
1	0xbd8af546	-0.067850634
2	0x3da06e15	0.078334965
3	0xbd514859	-0.051094387
4	0x3d9fc2a3	0.07800796
5	0x3ead4318	0.3384025
6	0x3e82b28a	0.2552684
7	0x3d222996	0.03959044
8	0x3e1e8123	0.15478949
9	0x3da16cb4	0.078820616
10	0x3dd9c70f	0.106336705
11	0x3e88076a	0.26568156
12	0x3cd3531d	0.025796467
13	0xbcb4c1a9	-0.022065
14	0x3e5b97ff	0.214447
15	0x3d123b9e	0.035701387
16	0x3db94442	0.09046222
17	0xbdf7df35	-0.1210312
18	0x3c54aeef	0.012981161
19	0x3e17fda0	0.14842844
20	0xbdc18d44	-0.094507724
21	0x3d966980	0.07344341
22	0x3e246bb4	0.1605671
23	0x3e6c44ac	0.23073071
24	0x3de255c6	0.11051516
25	0x3c868210	0.01641944
26	0x3da78981	0.08180524
27	0x3d76c735	0.060248572
28	0x3e1c9491	0.15291049
29	0x3d799aa7	0.060938504
30	0x3eb487cc	0.35259855
31	0x3e138085	0.14404495
32	0x3e954027	0.29150507
33	0x3d65d810	0.056114256
34	0x3d9fb5a0	0.07798314
35	0x3e9d71e5	0.30750957
36	0xbd55ad55	-0.052167255
37	0x3e6b406d	0.22973795
38	0x3e18a674	0.14907247
39	0x3da2ab1e	0.07942794
40	0x3defb111	0.117036946
41	0x3d15578f	0.036460456
42	0x3dbf5969	0.093432255
43	0x3db19e95	0.08672825
44	0x3da030ba	0.07821794
45	0x3e5b7c92	0.21434239
46	0xbbc0ac33	-0.0058799027
47	0x3e14d01d	0.14532514
48	0x3d16b3a0	0.036792397
49	0x3db47ef1	0.08813275
50	0x3de9461b	0.11390325
51	0x3de4a675	0.11164562
52	0x3d46ec5f	0.048565265
53	0x3d5c4067	0.053772356
54	0xbcdf3a9d	-0.027249629
55	0x3d2adf6d	0.04171698
56	0x3d655008	0.055984527
57	0x3d862d6b	0.065516315
58	0x3d7a9ac7	0.061182763
59	0x3e52eb16	0.2059749
60	0x3e31a613	0.17348509
61	0x3e01d968	0.1268059
62	0x3aab7e42	0.0013083892
63	0x3dfd756f	0.12375914
64	0x3e0dc755	0.1384557
65	0x3e903da3	0.28172025
66	0x3df38e50	0.11892378
67	0x3db5c6c3	0.088758014
68	0x3dae7ce4	0.08519915
69	0x3e73da3a	0.23813716
70	0x3e86a5af	0.26298282
71	0x3e05a9de	0.1305308
72	0x3e98388f	0.2973065
73	0x3e801567	0.2501633
74	0x3e3f1ba5	0.1866289
75	0x3e05dd9e	0.13072821
76	0x3de6053c	0.11231467
77	0x3ea81d12	0.3283468
78	0x3ddcc844	0.10780385
79	0x3e30053c	0.17189497
80	0x3d69d15e	0.057084434
81	0x3e39db81	0.1815014
82	0x3d8fd466	0.07022934
83	0x3dc87a13	0.09788909
84	0x3d929eac	0.071591705
85	0x3e8dd11b	0.27698597
86	0x3e3c2616	0.18373904
87	0xbbfb2d2d	-0.0076652975
88	0x3e62c8ac	0.22146863
89	0x3e675c18	0.22593725
90	0x3e6e6cb9	0.23283662
91	0x3e759673	0.23983173
92	0x3dbaa6e2	0.091138616
93	0xbd966dd5	-0.073451675
94	0x3e1b1219	0.15143622
95	0x3e178b20	0.14799166
96	0x3e00b23a	0.12567988
97	0x3d8d61d7	0.06903427
98	0x3e167e34	0.1469658
99	0x3e2ca7e2	0.16860917
100	0x3e97e987	0.29670355
101	0x3c5b0697	0.01336827
102	0x3dd31966	0.10307579
103	0x3e5629b0	0.2091434
104	0x3e98c2f4	0.29836237
105	0x3e97c411	0.29641774
106	0x3dedf0ff	0.11618232
107	0xbb7c94c3	-0.0038540817
108	0x3e035d8c	0.12828654
109	0xbb8e6681	-0.0043457155
110	0xbd280888	-0.04102376
111	0x3e71f6c5	0.23629291
112	0x3e2c5763	0.1683021
113	0x3ec68813	0.3877569
114	0xbcbc88b7	-0.02301441
115	0x3e320a7c	0.17386812
116	0x3e0f0514	0.13966781
117	0x3e421b21	0.18955661
118	0xbc5dc474	-0.013535608
119	0x3e3a9761	0.18221809
120	0x3daf1967	0.08549767
121	0x3e187be4	0.1489101
122	0x3e204b7b	0.15653794
123	0x3df0fa38	0.117664754
124	0x3da72bfe	0.08162688
125	0x3b89a5ba	0.0042006643
126	0x3e3a2c34	0.18180925
127	0xbce00d50	-0.027350098

net.6.weight f4 [11, 128]
0	0xbfaed00d	-1.3657242
1	0xbc8f75a2	-0.017512146
2	0x3e654b78	0.2239207
3	0xbd010b5e	-0.03150498
4	0x3e5be3d5	0.2147363
5	0xbf56e069	-0.8393617
6	0xbf0093e2	-0.5022565
7	0x3e769b0c	0.24082583
8	0xbf0eb416	-0.5574354
9	0x3e19b770	0.15011382
10	0xbf342a5a	-0.70377123
11	0x3ed715d1	0.42008832
12	0x3e738444	0.23780924
13	0xbe49d610	-0.19710565
14	0x3e17163f	0.1475458
15	0xbf02412b	-0.5088069
16	0xbe48daa3	-0.19614653
17	0x3d032800	0.03202057
18	0xbd91e9d0	-0.07124674
19	0x3eb79039	0.3585222
20	0xbca8ec4c	-0.020620488
21	0xbd342a85	-0.043985862
22	0xbf6f4233	-0.93460387
23	0xbfbcf3e9	-1.4761935
24	0x3e18acf9	0.14909734
25	0x3e57dbfd	0.21080013
26	0x3e68aa3c	0.2272119
27	0x3e80b69b	0.25139317
28	0xbeec4435	-0.46145788
29	0x3e07c445	0.13258465
30	0xbee31dfe	-0.4435882
31	0x3f001eed	0.5004719
32	0x3defac63	0.11702802
33	0x3c918e41	0.017768027
34	0x3e174a7a	0.14774504
35	0xbe1e378f	-0.15450881
36	0xbcc973d3	-0.024591362
37	0xbf6615ad	-0.89876825
38	0x3e2fc105	0.17163475
39	0xbf9c80fe	-1.2226865
40	0xbd98c6af	-0.07459771
41	0x3f222daa	0.6335093
42	0x3e279afe	0.16367719
43	0xbf7d0d1b	-0.9884812
44	0xbe5a780f	-0.21334861
45	0xbfd703ad	-1.6797997
46	0x3e26fa5b	0.1630644
47	0xbf546463	-0.8296568
48	0x3e2059a4	0.15659195
49	0xbebb6a8e	-0.36604732
50	0x3d88144d	0.06644497
51	0x3ed409ec	0.4141382
52	0x3ed4be69	0.4155152
53	0x3dea1b6f	0.11431014
54	0xbb371b30	-0.002793979
55	0xbb5f34b0	-0.0034058504
56	0xbed010c0	-0.4063778
57	0x3df0e615	0.11762635
58	0xbe5d8843	-0.21634011
59	0x3e2794c6	0.16365346
60	0x3b41df3a	0.0029582516
61	0xbf876a10	-1.0579243
62	0xbebb69ba	-0.366041
63	0x3e050992	0.12991932
64	0xbdf45b32	-0.119314566
65	0x3ec95245	0.3932058
66	0x3f268912	0.650529
67	0x3d8784b1	0.06617106
68	0x3ef49538	0.47770095
69	0xbe44ba6f	-0.19211744
70	0xbf7de808	-0.99182177
71	0xbf894694	-1.0724664
72	0x3e2f5d3b	0.17125408
73	0xbeddc447	-0.4331381
74	0x3e89acbb	0.26889595
75	0xbf12e9db	-0.57388085
76	0xbe6d5f09	-0.23180784
77	0xbf17b9ca	-0.59267867
78	0x3e135d2b	0.1439101
79	0x3aedefab	0.0018153092
80	0x3e23afc4	0.15985018
81	0xbe43f6d0	-0.1913712
82	0xbe2bce55	-0.16777928
83	0x3e86e1a0	0.26344013
84	0xbf002c8f	-0.5006799
85	0xbf80fb43	-1.0076679
86	0x3ed1148c	0.4083599
87	0x3d286805	0.041114826
88	0xbef9422e	-0.48683304
89	0xbf3908a5	-0.72278816
90	0xbeb37bf2	-0.350555
91	0xbeb06e14	-0.34458983
92	0x3d376082	0.04476977
93	0xbe20ae4a	-0.15691486
94	0xbe2e6cf6	-0.17033753
95	0xbf8a1919	-1.0788909
96	0x3d1c6f1b	0.038191896
97	0x3d6a3515	0.05717953
98	0x3e86aba9	0.2630284
99	0x3a180f95	0.0005800662
100	0xbfa0d36e	-1.2564523
101	0x3daf30e7	0.08554249
102	0x3e07bb45	0.13255031
103	0x3d50bcf6	0.050961457
104	0x3ea4f1c5	0.32215706
105	0x3ec035a3	0.37540922
106	0x3eaa4a94	0.33260024
107	0xbe53f9e1	-0.2070079
108	0x3ca84b1b	0.020543626
109	0x33bf1c00	8.899224e-08
110	0x3e21e1e6	0.1580883
111	0x3c7a9a0a	0.015295515
112	0xbf8f254b	-1.1183256
113	0x3dade29a	0.084904864
114	0x3e855a85	0.26045623
115	0xbf2ce7f8	-0.67541456
116	0xbf8252ce	-1.018152
117	0xbe3258e2	-0.17416719
118	0xbcb4ce83	-0.022071129
119	0xbf64ca40	-0.8937111
120	0x3d666260	0.05624616
121	0x3d09923f	0.033586737
122	0x3dac775e	0.08421205
123	0xbf0da3d8	-0.5532813
124	0xbf94c457	-1.1622418
125	0xbe5ab5cc	-0.21358413
126	0x3e2323c9	0.1593162
127	0x3ca1cd60	0.01975125
128	0xbd9dae68	-0.07699281
129	0xbb8f2516	-0.0043684347
130	0x3dcca267	0.09991913
131	0x3bffc0fb	0.0078049875
132	0x3e95d15d	0.29261294
133	0xbe0ce866	-0.13760528
134	0xbebeef3f	-0.37291905
135	0xbf56c68f	-0.83896726
136	0x3ec635e6	0.38712996
137	0x3df75ed1	0.12078632
138	0x3d58dd85	0.052945632
139	0xbf068ab7	-0.5255541
140	0x3e05944b	0.1304485
141	0x3e0a11ab	0.13483302
142	0xbfa93ea9	-1.3222247
143	0x3ebb5b35	0.36593023
144	0x3e25da20	0.1619649
145	0x3c2da2c3	0.010597887
146	0x3ec42842	0.38311964
147	0x3ced5345	0.02897037
148	0x3d862348	0.06549698
149	0x3e8a100a	0.26965362
150	0x3e47cb43	0.19511132
151	0x3d19fe39	0.03759596
152	0xbf3ad77b	-0.7298505
153	0x3db34ee8	0.087552845
154	0xbed436c1	-0.41448024
155	0x3db6ee63	0.089321874
156	0xbfb38e7c	-1.4027858
157	0x3e936b8f	0.28792998
158	0xbe9ed742	-0.31023604
159	0x3b2f86a7	0.002678314
160	0x3e35b47c	0.1774463
161	0x3ea2d92f	0.31806323
162	0xbe1bc0a0	-0.152102
163	0x3e3ec100	0.18628311
164	0xbc84af74	-0.016196944
165	0xbf879370	-1.0591869
166	0x3e25575a	0.16146603
167	0xbef7b55b	-0.4838055
168	0xbf4429a9	-0.7662607
169	0x3eae25d5	0.3401324
170	0x3de875d4	0.11350599
171	0x3e51b9ea	0.20481077
172	0x3ecf4153	0.40479526
173	0x3d3fb38e	0.046802096
174	0x3e355b1a	0.17710534
175	0x3e032795	0.12808068
176	0x3d44d6a9	0.04805628
177	0x3ebf874b	0.37407908
178	0x3e1651fe	0.14679715
179	0xbd64fecd	-0.05590706
180	0x3ea2f367	0.31826326
181	0x3dbc01bb	0.091800176
182	0xbe1516ea	-0.14559522
183	0xbf2c6553	-0.6734211
184	0xbfa6717a	-1.300338
185	0x3e2a58a7	0.1663538
186	0x3e9b5f74	0.30346262
187	0xbef33da4	-0.47507966
188	0x3dcee21b	0.1010172
189	0xbf33546f	-0.7005071
190	0xbe1cbe43	-0.15306954
191	0x3e5f63db	0.21815436
192	0x3d6f3a9a	0.058405496
193	0xbf68a4a7	-0.9087624
194	0xbe9872bf	-0.29775044
195	0xbfa77f33	-1.3085693
196	0xbe216423	-0.15760855
197	0xbe79913e	-0.24371812
198	0xbe4bb12e	-0.19891807
199	0x3df7ba36	0.12096064
200	0xbf75c3bd	-0.960018
201	0x3e74457e	0.23854634
202	0x3d9b65de	0.07587789
203	0xba8763a8	-0.0010329382
204	0x3ed1af5c	0.409541
205	0x3e2a57da	0.16635075
206	0x3e17acd5	0.14812024
207	0xbfa0dfaa	-1.2568257
208	0x3d9afe09	0.075679846
209	0xbf1e3da7	-0.61812824
210	0xbfaea8dd	-1.3645283
211	0x3e6b39e2	0.229713
212	0x3e7b6c80	0.24553108
213	0x3e1edef6	0.1551474
214	0xbeb1135f	-0.3458509
215	0x3e1c26e3	0.15249209
216	0xbf63d407	-0.88995403
217	0x3e05a9c6	0.13053045
218	0x3e308c61	0.1724105
219	0x3e2ec4c6	0.1706725
220	0xbefaf693	-0.49016246
221	0x3da83204	0.08212665
222	0x3e225b3a	0.15855113
223	0xbbf13710	-0.0073613003
224	0x3b050234	0.0020295503
225	0xbe88173d	-0.2658023
226	0x3d5f5cf3	0.054532003
227	0x3e3f0270	0.18653274
228	0xbf1f6324	-0.6226065
229	0xbf881ab8	-1.0633154
230	0xbedce2ed	-0.4314188
231	0x3e1adab9	0.15122499
232	0xbf0d264a	-0.5513655
233	0xbeffe377	-0.4997823
234	0xbf41d406	-0.7571415
235	0x3e5decbf	0.21672343
236	0xbf95c8ba	-1.1701882
237	0x3e1125d0	0.1417458
238	0x3dccd060	0.10000682
239	0xbeeb4716	-0.45952672
240	0xbcc6781f	-0.0242272
241	0x3e323fe7	0.1740719
242	0xbf03ea1f	-0.51529115
243	0xbfa0ed7a	-1.2572472
244	0xbe416b8c	-0.18888682
245	0xbf4a3eaa	-0.7900187
246	0x3db1feff	0.08691215
247	0x3d3433eb	0.043994825
248	0xbe0026fe	-0.12514874
249	0x3e12711c	0.1430096
250	0x3dfd80b0	0.12378061
251	0xbf8a3792	-1.0798209
252	0xbec754f6	-0.38932008
253	0x3eaa0574	0.33207285
254	0x3db995f4	0.090618044
255	0xbce29b8f	-0.027662067

net.6.bias f4 [11]
0	0xbe56b3e8	-0.20967066
1	0xbd3712b7	-0.044695582
2	0x3d4fae55	0.050703365
3	0x3c210983	0.009828928
4	0xbdba9cb7	-0.09111922
5	0xbbc8cd75	-0.006128008
6	0x3e21c901	0.15799333
7	0x3d2aca22	0.041696675
8	0xbc67e5ac	-0.014153879
9	0xbe87ec6f	-0.26547572
10	0x3e0f3528	0.13985121
