bsl-mp/public/models/bsl_sign_model.onnx (onnx, 105490 bytes, 6 tensors)

net.0.bias f4 [128]
0.026621664 0.09140208 -0.028904395 0.12335651 0.010214898 0.06003832 0.056358896 -0.038154535
0.06356419 -0.033113614 0.18322557 0.07952573 0.060640324 0.051258914 0.20374574 0.1147755
-0.050467946 0.0037888885 -0.108168565 -0.012714249 -0.07341479 0.022121841 0.03488543 0.10169266
0.008960378 0.07555417 0.08586001 0.029708553 0.03725602 0.12214349 -0.04572298 0.10592603
0.13346721 0.06667826 0.030321592 -0.03818152 0.023957819 0.08649822 0.0033686445 0.05918059
0.067414 -0.07317947 -0.022242598 -0.043768674 0.076508716 0.112459965 0.0443943 0.023629177
0.15276732 0.013756375 0.118245855 0.119201496 -0.1357082 0.046057664 0.07146589 0.10015428
0.024288028 0.07980789 0.10635095 0.09064076 0.036718234 0.058566585 0.10896558 -0.14298585
0.0986381 0.13181879 -0.049624003 0.08449154 -0.042600013 0.07844085 -0.043728095 -0.0035762016
-0.11362572 0.041168556 -0.0657651 0.05269057 0.019424152 0.0144571215 0.21744291 -0.013336573
0.038623612 -0.106971726 -0.045941927 -0.080962956 0.11279314 0.0681358 -0.11378144 0.07774664
0.009246121 -0.021217296 0.117737845 -0.04834363 0.16444121 -0.034318604 -0.028352967 -0.022628358
0.043436933 0.10912351 -0.019569965 0.08567635 0.124691464 0.15159245 0.085665815 -0.013148641
0.051104017 0.061772354 -0.09678655 0.11677129 0.08783482 -0.0853202 -0.03313394 -0.08257641
-0.02968784 -0.12189804 -0.07960612 0.012987941 0.004618914 0.08504569 0.08860833 0.025818469
-0.021232156 -0.09001383 0.11821162 0.056338288 -0.062108405 -0.006522268 0.13205594 -0.10574346
00000000: ad15 da3c 0431 bb3d e9c8 ecbc 57a2 fc3d
00000010: 635c 273c beea 753d 96d8 663d ee47 1cbd
00000020: f12d 823d 24a2 07bd 7c9f 3b3e 63de a23d
00000030: fd61 783d def4 513d b9a2 503e 6b0f eb3d
00000040: 7ab7 4ebd 004f 783b 7b87 ddbd 6d4f 50bc
00000050: 7e5a 96bd dd38 b53c 06e4 0e3d 3e44 d03d
00000060: 8dce 123c 25bc 9a3d 5fd7 af3d 5a5f f33c
00000070: c599 183d 5e26 fa3d 0548 3bbd bfef d83d
00000080: a1ab 083e 9d8e 883d fd64 f83c 3a64 1cbd
00000090: 3043 c43c fb25 b13d 7ac4 5c3b 5967 723d
000000a0: 5a10 8a3d 1edf 95bd 1c36 b6bc c846 33bd
000000b0: 9ab0 9c3d 6951 e63d ccd6 353d fa91 c13c
000000c0: 096f 1c3e 6b62 613c e22a f23d ea1f f43d
000000d0: 17f7 0abe f6a6 3c3d b55c 923d b01d cd3d
000000e0: b0f7 c63c 5272 a33d 87ce d93d dda1 b93d
000000f0: dc65 163d 84e3 6f3d 5929 df3d e26a 12be
00000100: c602 ca3d 81fb 063e 8a42 4bbd e709 ad3d
00000110: 5a7d 2ebd 99a5 a03d 3b1c 33bd b55e 6abb
00000120: 9ab4 e8bd 5ca0 283d daaf 86bd 11d2 573d
00000130: 661f 9f3c 90dd 6c3c 5ba9 5e3e a481 5abc
00000140: cb33 1e3d fe13 dbbd 9a2d 3cbd e8cf a5bd
00000150: 1700 e73d c88a 8b3d 3e06 e9bd a139 9f3d
00000160: 0b7d 173c e5cf adbc 8a20 f13d f803 46bd
00000170: 4763 283e aa91 0cbd 7b44 e8bc 1b5f b9bc
00000180: edea 313d 267c df3d 3151 a0bc 1577 af3d
00000190: 3d5e ff3d 0d3b 1b3e 8f71 af3d 666d 57bc
000001a0: 7252 513d 0205 7d3d 0738 c6bd c925 ef3d
000001b0: bee2 b33d 5bbc aebd 74b7 07bd d21d a9bd
000001c0: ea33 f3bc aea5 f9bd 8908 a3bd 5fcb 543c
000001d0: 425a 973b 6f2c ae3d 4978 b53d 4181 d33c
000001e0: 0fef adbc 2c59 b8bd ef18 f23d fac2 663d
000001f0: 6265 7ebd c0b8 d5bb ac39 073e 0790 d8bd

net.3.bias f4 [128]
0.24332531 0.087994084 0.0063293455 0.07933545 0.3168771 -0.05194869 -0.013575127 0.24954207
0.07224837 0.08110353 -0.068962455 0.01681954 0.1903654 -0.036844775 0.07336358 0.09179894
0.1559611 0.06254066 -0.058214925 0.06761978 0.15139756 0.22950411 0.09425697 0.018608898
0.1107976 0.016124263 0.39517456 0.13236518 0.042671196 0.060748182 0.25918978 0.09108163
0.18001677 0.04795901 0.18442592 -0.002274911 0.07764132 0.14520219 0.13004078 0.13441773
-0.04287014 0.08918344 0.12181098 0.12344741 -0.028865723 0.33805576 0.0037790057 0.079967625
0.38017982 0.09284661 0.08886086 0.3186108 0.13271822 0.19033907 0.13365097 0.1051946
0.19291413 0.12395706 0.3025004 0.0953974 0.2561314 0.013991083 0.24062057 0.21462649
0.08006709 0.2141838 0.1465009 0.28153393 0.12265968 0.25812006 0.10573575 0.17336383
0.13802283 0.10035012 -0.09459945 0.14716567 0.13071387 0.24157004 0.2426557 0.27546236
0.14939272 0.16482557 0.23164205 0.0703211 -0.08720118 0.08062471 0.27472788 0.20303051
-0.090765536 0.0050881403 0.19815655 0.23994085 -0.062537864 0.13958268 0.15214227 0.1200584
-0.06581747 0.07165204 0.13551806 0.1628928 -0.061092652 -0.16389546 0.043221813 0.14725004
0.23749454 -0.07043634 0.0991997 0.10184454 -0.0144762285 0.0355349 0.13610236 0.23569685
0.16638377 0.21377043 0.25884932 0.11908085 0.031885944 0.1888595 0.20168519 0.06773829
-0.0807119 0.10809265 0.18464747 0.2813147 -0.010707977 0.088453166 0.14829949 0.112221725
00000000: 452a 793e 3e36 b43d 6666 cf3b a07a a23d
00000010: b73d a23e 26c8 54bd 366a 5ebc f587 7f3e
00000020: f4f6 933d 9c19 a63d 303c 8dbd 22c9 893c
00000030: 26ef 423e 8cea 16bd a53f 963d 1501 bc3d
00000040: 44b4 1f3e 5115 803d c672 6ebd 3d7c 8a3d
00000050: f607 1b3e 2003 6b3e cc09 c13d b071 983c
00000060: dae9 e23d 0817 843c 5254 ca3e bd8a 073e
00000070: fec7 2e3d 16d3 783d 86b4 843e 0189 ba3d
00000080: 5156 383e ab70 443d 26da 3c3e ac16 15bb
00000090: 6a02 9f3d e2af 143e 6929 053e cda4 093e
000000a0: 9a98 2fbd cfa5 b63d 0978 f93d ffd1 fc3d
000000b0: cf77 ecbc a515 ad3e 32a9 773b 11c6 a33d
000000c0: eea6 c23e 5d26 be3d affc b53d f420 a33e
000000d0: 49e7 073e 3fe8 423e cddb 083e 4470 d73d
000000e0: 488b 453e 33dd fd3d 55e1 9a3e b65f c33d
000000f0: a823 833e db3a 653c 3d65 763e 0cc7 5b3e
00000100: 37fa a33d 0053 5b3e 5504 163e 3725 903e
00000110: 0035 fb3d 5028 843e fc8b d83d 4a86 313e
00000120: db55 0d3e 5d84 cd3d 5bbd c1bd 99b2 163e
00000130: dbd9 053e 235e 773e bc7a 783e 6709 8d3e
00000140: 68fa 183e 09c8 283e 9333 6d3e 8204 903d
00000150: 8896 b2bd 911e a53d 22a9 8c3e 3be7 4f3e
00000160: 48e3 b9bd 6aba a63b 8de9 4a3e 0eb3 753e
00000170: da13 80bd c3ee 0e3e 2fcb 1b3e 2ee1 f53d
00000180: 4fcb 86bd 4ebe 923d 3fc5 0a3e 5fcd 263e
00000190: 4a3c 7abd 36d4 27be 5b09 313d b7c8 163e
000001a0: c531 733e ee40 90bd 3629 cb3d df93 d03d
000001b0: b42d 6dbc 0b8d 113d 6b5e 0b3e 845a 713e
000001c0: 8260 2a3e a3e6 5a3e e687 843e a9e0 f33d
000001d0: d69a 023d 6364 413e 9086 4e3e 5fba 8a3d
000001e0: 484c a5bd ae5f dd3d 3a14 3d3e 7b08 903e
000001f0: 8370 2fbc ef26 b53d d2db 173e 81d4 e53d

net.6.bias f4 [11]
-0.16984585 0.117231786 -0.034715135 0.12339204 -0.040815994 0.010247039 -0.11083149 0.03748052
0.101859726 -0.04961024 0.13990965
00000000: 12ec 2dbe 3817 f03d 7531 0ebd f7b4 fc3d
00000010: ac2e 27bd 32e3 273c 9ffb e2bd 2c85 193d
00000020: d59b d03d 1b34 4bbd 7a44 0f3e

net.0.weight f4 [128, 63]
-0.038336694 0.048273087 0.6112527 -0.113909796 -0.16531895 1.1373361 -0.015068542 0.08788624
1.5159816 0.07724065 0.15283833 1.5824383 0.12992467 0.27180192 1.8105271 -0.032668903
-0.08016387 0.21918432 0.06509337 0.15268585 0.108800955 0.121346794 0.14371169 0.13933773
0.075087555 0.23743224 0.22121891 -0.19209525 -0.052944146 0.0056032087 0.00057481544 0.098771565
-0.25561956 -0.005423342 -0.0103388885 -0.34182906 0.17804529 -0.116712436 -0.17758162 -0.12635761
0.0010989886 0.123842105 -0.1634656 -0.099706836 -0.1959749 0.1846945 -0.119928345 -0.6867532
0.17340395 -0.22693212 -0.8373655 -0.24759221 0.12508067 0.14841834 -0.1968634 -0.04014486
-0.062931135 0.11435713 -0.056169886 -0.38620687 0.029095544 -0.25598067 -0.59928757 -0.017028678
0.031398382 0.2811431 -0.17370224 -0.103208266 0.6068645 -0.04802134 -0.16157635 0.38841116
-0.123884395 -0.087083854 0.13843349 -0.36352834 -0.19429481 0.12488091 0.06693939 -0.15982363
-0.39234796 0.07441819 -0.1843633 -0.2710103 0.06805851 -0.24071464 -0.050595388 -0.029956184
-0.13424335 -0.0582352 0.07634737 -0.117926866 -0.34092942 -0.103322744 0.050726265 -0.0678429
-0.0026847322 -0.08033098 0.13837916 -0.01068791 -0.10583737 -0.02309757 0.11422986 0.06118086
-0.35355237 0.045591254 0.017785894 0.007213334 0.10355174 0.036107313 0.26429504 0.102620624
0.32206464 0.25987548 0.15226509 0.04719007 -0.32817528 -0.07732842 0.06816208 -0.021791188
0.009947695 0.31012583 0.29795867 -0.05805334 0.5090109 0.37387568 -0.0065351836 0.120898835
0.4626143 0.21034542 0.13205472 0.5112806 0.15183882 0.1595336 0.5784605 0.41491252
0.21955507 0.24906217 0.5754073 0.21916366 0.0979565 -0.12651744 0.1580423 0.307854
-0.14699624 -0.030868797 -0.19770163 0.10451192 -0.215531 -0.15271325 -0.06480534 -0.22277439
-0.34789565 -0.029710775 0.034835856 0.09391309 -0.108461924 -0.15578614 -0.14220011 -0.12193428
-0.08763538 -0.37051392 -0.055479433 -0.1447428 -0.12174197 -0.11877082 -0.017174065 -0.013271517
-0.011651092 -0.21706222 -0.21393017 -0.026045686 -0.037216198 0.0533665 -0.14812343 0.24347372
0.5552945 0.078146875 -0.12827963 -0.12342944 -0.06905136 -0.13014181 -0.030793808 -0.21689807
0.033831123 0.23218009 -0.21961877 0.13992926 0.58693415 0.18708134 -0.07763182 -2.4996614
-0.00800274 -0.14402471 -0.33205938 -0.1016873 -0.1078676 -0.33704722 -0.0132378265 -0.18149123
-0.20014288 -0.037179533 -0.063486144 0.08797769 0.16211864 -0.071992435 -0.6053155 -0.0070958
-0.08205381 -0.49262825 0.014904031 -0.15385216 -0.07288637 -0.32207245 0.08089441 -0.04607626
0.08627696 -0.17642461 -0.6717998 -0.09775872 -0.11627839 0.012270463 -0.028699264 0.12810531
0.3691291 -0.34338844 0.21211259 0.47128364 0.12767646 0.06842003 -0.4526426 0.07807228
0.09301572 0.045900427 -0.084786534 0.078533515 0.30535004 -0.078762144 0.27948973 0.5385709
0.25474852 0.12482307 -0.27185392 0.22644682 -0.074827276 -0.06153823 -0.026353559 -0.051171146
0.035558704 -0.04102494 0.20209195 0.103065014 -0.28286886 -0.11679839 0.5222078 0.01584738
00000000: f006 1dbd 00ba 453d 0f7b 1c3f 8a49 e9bd
00000010: 5f49 29be 3b94 913f 0ce2 76bc b3fd b33d
00000020: af0b c23f 5930 9e3d a781 1c3e 578d ca3f
00000030: f90a 053e 9f29 8b3e 5abf e73f d4cf 05bd
00000040: f42c a4bd db71 603e ac4f 853d ae59 1c3e
00000050: 09d3 de3d ab84 f83d 2829 133e 8dae 0e3e
00000060: 81c7 993d 7021 733e 3687 623e 9eb4 44be
00000070: f6db 58bd 1f9b b73b 36af 163a bf48 ca3d
00000080: 91e0 82be 4ab6 b1bb 7164 29bc 3804 afbe
00000090: 8151 363e ee06 efbd f5d7 35be e463 01be
000000a0: f00b 903a eea0 fd3d 8763 27be 1933 ccbd
000000b0: a5ad 48be 8e20 3d3e fe9c f5bd 0fcf 2fbf
000000c0: ce90 313e e560 68be 965d 56bf d088 7dbe
000000d0: 2615 003e fafa 173e 8f96 49be f06e 24bd
000000e0: 0ae2 80bd 1234 ea3d 6512 66bd e8bc c5be
000000f0: c759 ee3c e60f 83be e96a 19bf ba7f 8bbc
00000100: 979b 003d fdf1 8f3e 00df 31be db5e d3bd
00000110: 795b 1b3f 06b2 44bd 4574 25be d4dd c63e
00000120: 1ab7 fdbd 0559 b2bd 82c1 0d3e 6320 babe
00000130: 38f5 46be 90c1 ff3d 8517 893d cea8 23be
00000140: d5e1 c8be 9068 983d bcc9 3cbe ddc1 8abe
00000150: 4362 8b3d e67d 76be 1c3d 4fbd ac66 f5bc
00000160: 1777 09be 0888 6ebd 035c 9c3d a483 f1bd
00000170: 4d8e aebe e09a d3bd 58c6 4f3d 38f1 8abd
00000180: 55f2 2fbb 9284 a4bd 44b3 0d3e 581c 2fbc
00000190: 43c1 d8bd 1d37 bdbc 58f1 e93d c898 7a3d
000001a0: d104 b5be e5bd 3a3d b9b3 913c d55d ec3b
000001b0: ef12 d43d 43e5 133d ae51 873e c32a d23d
000001c0: a8e5 a43e 660e 853e 61eb 1b3e 604a 413d
000001d0: 9706 a8be 5d5e 9ebd 9098 8b3d 6f83 b2bc
000001e0: a8fb 223c d0c8 9e3e 0a8e 983e 57c9 6dbd
000001f0: 8a4e 023f a26c bf3e 1825 d6bb cf99 f73d
00000200: c8db ec3e ca64 573e 5a39 073e 49e3 023f
00000210: a37b 1b3e c75c 233e fd15 143f 6a6f d43e
00000220: 0bd3 603e 270a 7f3e e54d 133f 706c 603e
00000230: 6b9d c83d ca8d 01be d7d5 213e 0a9f 9d3e
00000240: 2f86 16be 8fe0 fcbc 4c72 4abe 580a d63d
00000250: 29b4 5cbe dd60 1cbe a9b8 84bd f81e 64be
00000260: 611f b2be 0364 f3bc 0bb0 0e3d 8255 c03d
00000270: 4921 debd 6786 1fbe e89c 11be aeb8 f9bd
00000280: 2e7a b3bd 00b4 bdbe 673e 63bd 7537 14be
00000290: db53 f9bd 1e3e f3bd a0b0 8cbc c770 59bc
000002a0: 39e4 3ebc 8f45 5ebe 8310 5bbe c35d d5bc
000002b0: 0370 18bd d596 5a3d abad 17be 2d51 793e
000002c0: c827 0e3f 780b a03d bc5b 03be 93c8 fcbd
000002d0: cd6a 8dbd e543 05be 4c43 fcbc 871a 5ebe
000002e0: 8192 0a3d 9ec0 6d3e bee3 60be 9e49 0f3e
000002f0: 5141 163f 4092 3f3e 6ffd 9ebd 74fa 1fc0
00000300: ed1d 03bc 377b 13be b003 aabe 6e41 d0bd
00000310: b0e9 dcbd 7491 acbe 78e3 58bc d6d8 39be
00000320: 41f2 4cbe 9149 18bd 0605 82bd a62d b43d
00000330: 6e02 263e c570 93bd f5f5 1abf e283 e8bb
00000340: d40b a8bd c539 fcbe 0930 743c 6c8b 1dbe
00000350: 7345 95bd aee6 a4be f8ab a53d 76ba 3cbd
00000360: fab1 b03d a7a8 34be 12fb 2bbf b935 c8bd
00000370: 5d23 eebd 0d0a 493c b81a ebbc 0a2e 033e
00000380: 7dfe bc3e 9cd0 afbe 0b34 593e 174c f13e
00000390: 9ebd 023e cd1f 8c3d c5c0 e7be 5ce4 9f3d
000003a0: 077f be3d 1602 3c3d 90a4 adbd 2ed6 a03d
000003b0: d756 9c3e 0c4e a1bd 4719 8f3e c8df 093f
000003c0: 666e 823e 3da3 ff3d 7030 8bbe ade1 673e
000003d0: 0b3f 99bd 830f 7cbd 6be3 d7bc d698 51bd
000003e0: 01a6 113d c409 28bd 31f1 4e3e c013 d33d
000003f0: 30d4 90be ff33 efbd 69af 053f 5dd2 813c

net.3.weight f4 [128, 128]
-0.01908998 -0.13954167 0.49960476 -0.040803336 -0.19544895 -0.45885798 0.49556193 0.038470246
-0.75207436 0.14607604 -0.042799365 0.20219797 0.07144135 -0.26257405 -0.16530173 -0.2976922
0.25492525 -0.086918294 0.08402045 0.42344207 -0.08618459 0.12395921 0.16550364 0.37144363
0.16905966 0.34259722 0.35035664 0.6040932 0.108827434 0.059495628 0.07237768 -0.05623657
0.13535257 -0.27191803 0.5859603 -0.13948977 -0.059030253 -0.09694386 -0.37826583 -0.3441033
-0.13984676 -0.07847371 0.019080013 0.07393735 0.13958341 0.36126724 0.06411613 -0.39239645
-0.018157998 0.31018546 0.2247108 -0.08853948 -0.064545676 0.12420698 0.26775151 0.01529126
0.10254218 0.01600483 -0.70823395 -0.20943733 0.019739915 -0.07374043 -0.30094442 -0.029231396
-0.51257795 -0.117364086 0.014226899 0.073819384 0.011926733 -0.13264048 0.5541235 0.08841125
-0.04272152 0.085985854 0.35638207 0.10231814 0.43878853 -0.08656437 0.23251908 -0.040140357
-0.43401393 0.052271836 -0.049646046 -0.018148199 -0.20331538 0.011402063 -0.04888283 -0.052805442
0.27469224 -0.15474333 0.18690097 0.29660594 -0.0027676194 0.14438689 -0.051112376 0.07253235
0.06615289 -0.15911508 -0.042981308 0.25254568 -0.30044222 0.14384319 0.014732901 0.48864505
0.59332263 -0.22854093 -0.06254334 0.090673566 0.21278755 0.06510011 0.059606887 -0.14136031
0.07185712 0.083395995 -0.05013324 0.79275376 0.19511195 0.016041223 0.03130569 0.14149928
0.1603094 -0.009241879 0.31843892 0.11174568 -0.17720759 0.062146064 0.39320153 -0.19200538
0.3943941 0.17851174 -0.50695664 -0.19087882 0.5421887 0.5366736 -0.25326103 0.07140031
1.1884123 -0.17082581 0.01414542 0.11361061 0.009374419 0.55613166 0.35746363 0.28275385
-0.0816953 -0.03428664 -0.029411031 -0.3502322 -0.013662934 -0.24297316 -0.021940479 -0.33615965
0.04491036 -0.21697015 -0.15307 -0.4997315 -0.051538263 -0.17275418 -0.068962015 -0.07168145
-0.02986551 0.37005824 -0.38322258 0.4670426 0.093695566 0.4193071 0.56040215 0.48227468
0.2712935 0.022273228 -0.04913137 0.20743741 -0.09200808 -0.4211902 0.022466423 0.4255128
0.0686303 -0.22210388 -0.11803681 0.16367728 -0.009028328 -0.15836097 -0.19208686 0.08556209
0.0028146321 -0.055454463 0.8298775 0.25250378 -0.029658468 0.31446066 0.30385336 0.27398467
0.69322306 0.16264057 -0.06412188 -0.082209095 0.0011357963 0.13005863 -0.35271809 -0.06264275
-0.06561257 0.05077243 -0.19112134 -0.028687486 -0.32142356 -0.082151204 0.008123783 -0.033590574
0.61840534 -0.032310408 0.011585146 0.07056593 0.1711484 -0.0398069 0.06629472 0.34446916
-0.12013016 0.01521572 0.0364287 -0.17281374 -0.021495262 0.12494678 0.044027694 -0.07056997
0.16219509 0.16002466 0.10138971 -0.09427292 0.25330287 -0.116800666 0.18684776 -0.31850544
-0.43884376 0.38846937 0.057923734 -0.01274633 -0.08674423 0.062935 0.033844806 0.3368862
0.0046013813 0.045160376 0.060661256 -0.546793 -0.11711772 0.061351724 0.059958607 -0.020701364
-0.02704536 -0.060531326 -0.041478027 -0.03087424 0.72466314 0.16657846 -0.48921734 0.32793683
00000000: 9762 9cbc 03e4 0ebe 32cc ff3e 6621 27bd
00000010: c523 48be 6fef eabe 4bba fd3e fa92 1d3d
00000020: f287 40bf f594 153e 634e 2fbd fc0c 4f3e
00000030: d84f 923d 1b70 86be db44 29be 1d6b 98be
00000040: 9085 823e 3802 b2bd ea12 ac3d 66cd d83e
00000050: 8c81 b0bd 54de fd3d c979 293e dc2d be3e
00000060: fa1d 2d3e e768 af3e f261 b33e daa5 1a3f
00000070: ebe0 de3d b0b1 733d c03a 943d 5158 66bd
00000080: dd99 0a3e d738 8bbe 7f01 163f 68d6 0ebe
00000090: b5c9 71bd 818a c6bd 0fac c1be 4f2e b0be
000000a0: fd33 0fbe d3b6 a0bd b04d 9c3c 776c 973d
000000b0: f4ee 0e3e 05f8 b83e 514f 833d 30e8 c8be
000000c0: 15c0 94bc a1d0 9e3e 971a 663e 3054 b5bd
000000d0: 8630 84bd 3b60 fe3d ba16 893e 3188 7a3c
000000e0: a201 d23d 901c 833c d24e 35bf bd76 56be
000000f0: 9ab5 a13c 3905 97bd 6315 9abe ae76 efbc
00000100: 4f38 03bf 955c f0bd f017 693c 9e2e 973d
00000110: 5868 433c e8d2 07be 0adb 0d3f f510 b53d
00000120: c3fc 2ebd 5a19 b03d b677 b63e 2c8c d13d
00000130: e4a8 e03e a948 b1bd 7b19 6e3e 376a 24bd
00000140: 1337 debe fe1a 563d a759 4bbd 88ab 94bc
00000150: e831 50be b8cf 3a3c 5d39 48bd 854a 58bd
00000160: 76a4 8c3e 0975 1ebe f862 3f3e bcdc 973e
00000170: f360 35bb 28da 133e 365b 51bd d78b 943d
00000180: 2b7b 873d 10ef 22be 2b0d 30bd ab4d 813e
00000190: 90d3 99be a14b 133e 4462 713c af2f fa3e
000001a0: fee3 173f a206 6abe b916 80bd 10b3 b93d
000001b0: fbe4 593e 3553 853d 5a26 743d c2c0 10be
000001c0: d329 933d 85cb aa3d 8358 4dbd e9f1 4a3f
000001d0: 6dcb 473e e268 833c 653a 003d 30e5 103e
000001e0: 2628 243e 406b 17bc 6d0a a33e ebda e43d
000001f0: e875 35be df8c 7e3d b651 c93e 0f9d 44be
00000200: 06ee c93e c8cb 363e e9c7 01bf bd75 43be
00000210: e1cc 0a3f 7163 093f 6eab 81be 533a 923d
00000220: e51d 983f f6ec 2ebe 31c2 673c aeac e83d
00000230: 2a97 193c a55e 0e3f 7905 b73e 1dc5 903e
00000240: de4f a7bd 2670 0cbd 67ef f0bc a351 b3be
00000250: 80da 5fbc f5cd 78be 85bc b3bc 1e1d acbe
00000260: edf3 373d 6c2d 5ebe 62be 1cbe cfdc ffbe
00000270: c919 53bd 79e6 30be f53b 8dbd b9cd 92bd
00000280: 84a8 f4bc 4678 bd3e c035 c4be 3520 ef3e
00000290: 76e3 bf3d 6caf d63e 8476 0f3f b5ec f63e
000002a0: fbe6 8a3e 5876 b63c fa3d 49bd 796a 543e
000002b0: bb6e bcbd 3ea6 d7be 810b b83c d0dc d93e
000002c0: 0b8e 8c3d 336f 63be 48bd f1bd 049b 273e
000002d0: 8deb 13bc 6129 22be 6bb2 44be 2d3b af3d
000002e0: b175 383b 3824 63bd da72 543f 2d48 813e
000002f0: 51f6 f2bc fd00 a13e ab92 9b3e b847 8c3e
00000300: 1177 313f 408b 263e 5552 83bd 3e5d a8bd
00000310: 00df 943a 172e 053e 7797 b4be d84a 80bd
00000320: e25f 86bd c0f6 4f3d 50b5 43be 0502 ebbc
00000330: a191 a4be e43e a8bd 9e19 053c 4596 09bd
00000340: d04f 1e3f eb57 04bd a0cf 3d3c df84 903d
00000350: 8741 2f3e 8f0c 23bd 87c5 873d 435e b03e
00000360: cd06 f6bd 5b4b 793c 4336 153d 16f6 30be
00000370: d516 b0bc 19e4 ff3d 6256 343d fd86 90bd
00000380: 7816 263e 81dd 233e 69a5 cf3d 2912 c1bd
00000390: eab0 813e 3035 efbd 0555 3f3e 2513 a3be
000003a0: 21b0 e0be 75e5 c63e 7041 6d3d fcd5 50bc
000003b0: f5a6 b1bd 11e4 803d daa0 0a3d 597c ac3e
000003c0: 2fc7 963b 16fa 383d f077 783d a0fa 0bbf
000003d0: 6adb efbd f24b 7b3d 2897 753d e895 a9bc
000003e0: 3b8e ddbc b2ef 77bd dde4 29bd f9eb fcbc
000003f0: 8683 393f 8b93 2a3e b27a fabe 56e7 a73e

net.6.weight f4 [11, 128]
0.14156017 -0.25041944 -0.015330785 0.28440988 0.42623666 0.06113617 -0.047790512 -0.20640588
0.11666555 -0.64034224 -0.007113138 -0.7252943 -0.49255222 -0.23087916 0.21900949 0.08439508
-0.09799427 0.1914231 -0.17829247 0.17175266 0.23128346 -0.27204755 0.39341635 0.13000187
0.18785024 0.25311518 -0.605823 -0.10612993 0.13610888 -0.4080644 -0.97255766 -0.7882945
0.28288087 -0.7604573 -0.5672822 0.15233274 -0.8113304 0.017798882 0.2530673 -0.271722
1.3317803 0.49190244 -0.10775236 -0.06561106 0.0053694993 -0.3556031 0.09537451 -0.04958922
0.3316092 -0.04020412 0.001829592 -0.6875608 0.3006769 0.2595806 -0.36320993 -0.19289955
0.11953783 0.1688761 0.15138017 0.16668357 -0.3934373 -0.32679597 -0.21209623 -0.52262205
0.2274506 0.09543114 -0.6063113 0.19413552 -0.47240466 -0.78043264 -0.83487797 -0.69671583
-0.40343457 -0.7022265 0.4590871 -0.33929202 0.43849018 0.07615663 0.19246572 -0.12892133
-1.2644053 0.09254955 -0.00400222 -1.0682861 -0.10739712 0.13283187 -0.73305106 -0.6187023
0.12070712 0.1810015 0.29038364 -0.630759 -0.0802939 -1.0062333 0.24703477 -0.4130747
0.45565507 -0.7848587 -0.017801704 -0.80458635 0.0162328 0.4339094 0.23009464 0.37262636
-0.027774053 0.33267587 0.22006515 0.27515987 0.5450355 -0.09853245 0.2480793 0.24894737
0.11619449 -1.0130811 0.25143752 -0.0968976 0.37244186 -0.5736896 0.014935059 -0.54614556
-0.059854027 0.07971249 -0.11312587 0.10802307 -0.3279609 0.18166322 -1.1806421 0.111823045
-0.44161496 0.19537355 0.112646215 0.41749662 -0.6001884 -0.011715341 0.014542697 -0.9710101
0.11180284 0.35691237 -0.25032824 0.12488549 0.086094394 0.30575535 0.1613281 -0.19527858
0.06956162 0.14765581 -1.1174756 0.097525105 0.13775028 -0.04176035 0.37146774 0.07038255
0.044029884 0.12204228 -0.45975986 0.104850575 0.04447555 0.06804829 -0.020498058 -0.70855635
0.1763253 0.06539205 0.1602006 0.12892893 -1.1541288 -0.38525 -0.44858038 -0.9985318
-0.46290502 0.32744756 0.16038409 0.14691289 -0.065780774 -0.6633093 0.17418611 0.11967618
-0.539828 0.18952051 0.089989856 -1.0323077 0.055801142 -0.53384036 -1.2523198 0.21862404
0.091632284 -0.116236866 -1.0489334 0.08533666 -0.49236032 0.1363083 0.17310388 -0.19381136
0.39525974 0.11243718 0.060457528 -1.0301639 0.010706312 -0.097004585 -0.72169924 0.14222331
-0.004286485 0.07651431 -0.0042346995 0.1298981 -0.27225062 -1.2839209 -0.7966418 0.049747683
-0.013100626 0.10231353 0.14297818 0.02295267 0.0069204145 0.13209957 -0.52587885 0.11227115
0.04307251 -1.0237647 -0.26155975 -0.29251167 -0.5614483 0.41077593 -0.012796807 0.3256812
-0.056125924 -0.60709614 -1.0891706 0.07974399 0.12629026 0.012101449 0.18691611 -0.4107588
-0.19928253 -0.48871392 0.10031492 0.11830386 0.21250951 0.12622817 -0.5520691 -0.0069103343
0.1450776 -0.5476118 -0.6385807 0.14484926 0.15361418 0.16416292 0.10651996 0.286444
-0.00974529 -0.7654065 0.2380458 -0.59577966 -0.31857932 0.15270035 -0.310431 0.03478819
00000000: 26f5 103e fa36 80be f92d 7bbc 2c9e 913e
00000010: b13b da3e ec69 7a3d fcbf 43bd 105c 53be
00000020: 59ee ee3d 78ed 23bf 5415 e9bb e3ac 39bf
00000030: ce2f fcbe 966b 6cbe 0644 603e 54d7 ac3d
00000040: 38b1 c8bd 6b04 443e 4d92 36be eedf 2f3e
00000050: 92d5 6c3e d149 8bbe de6d c93e 361f 053e
00000060: d05b 403e 5098 813e 3717 1bbf a65a d9bd
00000070: 2060 0b3e d1ed d0be 8af9 78bf abcd 49bf
00000080: c3d5 903e 54ad 42bf 6839 11bf 1dfd 1b3e
00000090: 59b3 4fbf f6ce 913c 0a92 813e 251f 8bbe
000000a0: c777 aa3f a3da fb3e 45ad dcbd 175f 86bd
000000b0: a0f2 af3b 9c11 b6be b653 c33d 111e 4bbd
000000c0: aec8 a93e 13ad 24bd ecce ef3a fc03 30bf
000000d0: 53f2 993e c0e7 843e a7f6 b9be 7687 45be
000000e0: 40d0 f43d dbed 2c3e 6703 1b3e 19af 2a3e
000000f0: 9d70 c9be cd51 a7be c12f 59be 8fca 05bf
00000100: cfe8 683e 6771 c33d 3837 1bbf 76cb 463e
00000110: 06df f1be 6fca 47bf 90ba 55bf f85b 32bf
00000120: fa8e cebe 1ec5 33bf 770d eb3e afb7 adbe
00000130: c981 e03e 02f8 9b3d bc15 453e f403 04be
00000140: 08d8 a1bf 9e8a bd3d 0e25 83bb 99bd 88bf
00000150: 05f3 dbbd 1405 083e 3ca9 3bbf 4663 1ebf
00000160: 4b35 f73d 7558 393e 2aad 943e 6c79 21bf
00000170: 2171 a4bd 41cc 80bf aff6 7c3e 877e d3be
00000180: 9f4b e93e 80ec 48bf e1d4 91bc 5ff9 4dbf
00000190: a6fa 843c 5f29 de3e ee9d 6b3e e2c8 be3e
000001a0: 6986 e3bc 7e54 aa3e c258 613e c1e1 8c3e
000001b0: 7287 0b3f 62cb c9bd 8008 7e3e 0fec 7e3e
000001c0: 60f7 ed3d a4ac 81bf 6bbc 803e 4072 c6bd
000001d0: b3b0 be3e 52dd 12bf 2db2 743c 32d0 0bbf
000001e0: 7f29 75bd 4d40 a33d 89ae e7bd 333b dd3d
000001f0: 7eea a7be ec05 3a3e 481f 97bf 7b03 e53d
00000200: 5b1b e2be 0110 483e 0fb3 e63d 1ec2 d53e
00000210: f2a5 19bf b4f1 3fbc 7e44 6e3c 1e94 78bf
00000220: e3f8 e43d 38bd b63e 062b 80be f7c3 ff3d
00000230: 4252 b03d f78b 9c3e 3233 253e 1cf7 47be
00000240: 5376 8e3d 1633 173e 7109 8fbf 3ebb c73d
00000250: 690e 0d3e e70c 2bbd 0531 be3e ba24 903d
00000260: ae58 343d 4ef1 f93d a565 ebbe e6bb d63d
00000270: ff2b 363d e75c 8b3d 8beb a7bc f363 35bf
00000280: 9f8e 343e 44ec 853d a00b 243e f205 043e
00000290: 7eba 93bf 7d3f c5be 54ac e5be c89f 7fbf
000002a0: e301 edbe 35a7 a73e ba3b 243e 5570 163e
000002b0: 12b8 86bd a3ce 29bf d85d 323e c918 f53d
000002c0: 2b32 0abf aa11 423e 9a4c b83d a922 84bf
000002d0: bd8f 643d c3a9 08bf 044c a0bf fbde 5f3e
000002e0: b5a9 bb3d 980d eebd 7343 86bf fdc4 ae3d
000002f0: a716 fcbe 6794 0b3e 2542 313e 7c76 46be
00000300: 7c5f ca3e 7745 e63d 50a2 773d 69dc 83bf
00000310: 8769 2f3c 57aa c6bd 48c1 38bf fda2 113e
00000320: a475 8cbb 89b3 9c3d 3cc3 8abb 0204 053e
00000330: 6f64 8bbe 8557 a4bf b8f0 4bbf 3ac4 4b3d
00000340: 02a4 56bc c289 d13d df68 123e 3d07 bc3c
00000350: a5c4 e23b 1c45 073e ff9f 06bf 6bee e53d
00000360: cd6c 303d b90a 83bf 29eb 85be 17c4 95be
00000370: 13bb 0fbf 3951 d23e b3a9 51bc b0bf a63e
00000380: 4ce4 65bd a76a 1bbf f169 8bbf d150 a33d
00000390: 3c52 013e 2845 463c f066 3f3e fa4e d2be
000003a0: b810 4cbe b638 fabe e971 cd3d 4b49 f23d
000003b0: 189c 593e f541 013e 6754 0dbf 1670 e2bb
000003c0: 398f 143e 4930 0cbf 067a 23bf 5d53 143e
000003d0: 094d 1d3e 531a 283e 2327 da3d caa8 923e
000003e0: b5aa 1fbc aef1 43bf 47c2 733e 0485 18bf
000003f0: d41c a3be 7b5d 1c3e d0f0 9ebe 107e 0e3d
